{"format": "layers-model", "generatedBy": "keras v2.2.4-tf", "convertedBy": "TensorFlow.js Converter v4.22.0", "modelTopology": {"keras_version": "2.2.4-tf", "backend": "tensorflow", "model_config": {"class_name": "Model", "config": {"name": "model", "layers": [{"class_name": "InputLayer", "config": {"batch_input_shape": [null, 224, 224, 3], "dtype": "float32", "sparse": false, "name": "input_1"}, "name": "input_1", "inbound_nodes": []}, {"class_name": "ZeroPadding2D", "config": {"name": "conv1_pad", "trainable": false, "dtype": "float32", "padding": [[3, 3], [3, 3]], "data_format": "channels_last"}, "name": "conv1_pad", "inbound_nodes": [[["input_1", 0, 0, {}]]]}, {"class_name": "Conv2D", "config": {"name": "conv1_conv", "trainable": false, "dtype": "float32", "filters": 64, "kernel_size": [7, 7], "strides": [2, 2], "padding": "valid", "data_format": "channels_last", "dilation_rate": [1, 1], "activation": "linear", "use_bias": true, "kernel_initializer": {"class_name": "GlorotUniform", "config": {"seed": null}}, "bias_initializer": {"class_name": "Zeros", "config": {}}, "kernel_regularizer": null, "bias_regularizer": null, "activity_regularizer": null, "kernel_constraint": null, "bias_constraint": null}, "name": "conv1_conv", "inbound_nodes": [[["conv1_pad", 0, 0, {}]]]}, {"class_name": "BatchNormalization", "config": {"name": "conv1_bn", "trainable": false, "dtype": "float32", "axis": [3], "momentum": 0.99, "epsilon": 1.001e-05, "center": true, "scale": true, "beta_initializer": {"class_name": "Zeros", "config": {}}, "gamma_initializer": {"class_name": "Ones", "config": {}}, "moving_mean_initializer": {"class_name": "Zeros", "config": {}}, "moving_variance_initializer": {"class_name": "Ones", "config": {}}, "beta_regularizer": null, "gamma_regularizer": null, "beta_constraint": null, "gamma_constraint": null}, "name": "conv1_bn", "inbound_nodes": [[["conv1_conv", 0, 0, {}]]]}, {"class_name": "Activation", "config": {"name": "conv1_relu", "trainable": false, "dtype": "float32", "activation": "relu"}, "name": "conv1_relu", "inbound_nodes": [[["conv1_bn", 0, 0, {}]]]}, {"class_name": "ZeroPadding2D", "config": {"name": "pool1_pad", "trainable": false, "dtype": "float32", "padding": [[1, 1], [1, 1]], "data_format": "channels_last"}, "name": "pool1_pad", "inbound_nodes": [[["conv1_relu", 0, 0, {}]]]}, {"class_name": "MaxPooling2D", "config": {"name": "pool1_pool", "trainable": false, "dtype": "float32", "pool_size": [3, 3], "padding": "valid", "strides": [2, 2], "data_format": "channels_last"}, "name": "pool1_pool", "inbound_nodes": [[["pool1_pad", 0, 0, {}]]]}, {"class_name": "Conv2D", "config": {"name": "conv2_block1_1_conv", "trainable": false, "dtype": "float32", "filters": 64, "kernel_size": [1, 1], "strides": [1, 1], "padding": "valid", "data_format": "channels_last", "dilation_rate": [1, 1], "activation": "linear", "use_bias": true, "kernel_initializer": {"class_name": "GlorotUniform", "config": {"seed": null}}, "bias_initializer": {"class_name": "Zeros", "config": {}}, "kernel_regularizer": null, "bias_regularizer": null, "activity_regularizer": null, "kernel_constraint": null, "bias_constraint": null}, "name": "conv2_block1_1_conv", "inbound_nodes": [[["pool1_pool", 0, 0, {}]]]}, {"class_name": "BatchNormalization", "config": {"name": "conv2_block1_1_bn", "trainable": false, "dtype": "float32", "axis": [3], "momentum": 0.99, "epsilon": 1.001e-05, "center": true, "scale": true, "beta_initializer": {"class_name": "Zeros", "config": {}}, "gamma_initializer": {"class_name": "Ones", "config": {}}, "moving_mean_initializer": {"class_name": "Zeros", "config": {}}, "moving_variance_initializer": {"class_name": "Ones", "config": {}}, "beta_regularizer": null, "gamma_regularizer": null, "beta_constraint": null, "gamma_constraint": null}, "name": "conv2_block1_1_bn", "inbound_nodes": [[["conv2_block1_1_conv", 0, 0, {}]]]}, {"class_name": "Activation", "config": {"name": "conv2_block1_1_relu", "trainable": false, "dtype": "float32", "activation": "relu"}, "name": "conv2_block1_1_relu", "inbound_nodes": [[["conv2_block1_1_bn", 0, 0, {}]]]}, {"class_name": "Conv2D", "config": {"name": "conv2_block1_2_conv", "trainable": false, "dtype": "float32", "filters": 64, "kernel_size": [3, 3], "strides": [1, 1], "padding": "same", "data_format": "channels_last", "dilation_rate": [1, 1], "activation": "linear", "use_bias": true, "kernel_initializer": {"class_name": "GlorotUniform", "config": {"seed": null}}, "bias_initializer": {"class_name": "Zeros", "config": {}}, "kernel_regularizer": null, "bias_regularizer": null, "activity_regularizer": null, "kernel_constraint": null, "bias_constraint": null}, "name": "conv2_block1_2_conv", "inbound_nodes": [[["conv2_block1_1_relu", 0, 0, {}]]]}, {"class_name": "BatchNormalization", "config": {"name": "conv2_block1_2_bn", "trainable": false, "dtype": "float32", "axis": [3], "momentum": 0.99, "epsilon": 1.001e-05, "center": true, "scale": true, "beta_initializer": {"class_name": "Zeros", "config": {}}, "gamma_initializer": {"class_name": "Ones", "config": {}}, "moving_mean_initializer": {"class_name": "Zeros", "config": {}}, "moving_variance_initializer": {"class_name": "Ones", "config": {}}, "beta_regularizer": null, "gamma_regularizer": null, "beta_constraint": null, "gamma_constraint": null}, "name": "conv2_block1_2_bn", "inbound_nodes": [[["conv2_block1_2_conv", 0, 0, {}]]]}, {"class_name": "Activation", "config": {"name": "conv2_block1_2_relu", "trainable": false, "dtype": "float32", "activation": "relu"}, "name": "conv2_block1_2_relu", "inbound_nodes": [[["conv2_block1_2_bn", 0, 0, {}]]]}, {"class_name": "Conv2D", "config": {"name": "conv2_block1_0_conv", "trainable": false, "dtype": "float32", "filters": 256, "kernel_size": [1, 1], "strides": [1, 1], "padding": "valid", "data_format": "channels_last", "dilation_rate": [1, 1], "activation": "linear", "use_bias": true, "kernel_initializer": {"class_name": "GlorotUniform", "config": {"seed": null}}, "bias_initializer": {"class_name": "Zeros", "config": {}}, "kernel_regularizer": null, "bias_regularizer": null, "activity_regularizer": null, "kernel_constraint": null, "bias_constraint": null}, "name": "conv2_block1_0_conv", "inbound_nodes": [[["pool1_pool", 0, 0, {}]]]}, {"class_name": "Conv2D", "config": {"name": "conv2_block1_3_conv", "trainable": false, "dtype": "float32", "filters": 256, "kernel_size": [1, 1], "strides": [1, 1], "padding": "valid", "data_format": "channels_last", "dilation_rate": [1, 1], "activation": "linear", "use_bias": true, "kernel_initializer": {"class_name": "GlorotUniform", "config": {"seed": null}}, "bias_initializer": {"class_name": "Zeros", "config": {}}, "kernel_regularizer": null, "bias_regularizer": null, "activity_regularizer": null, "kernel_constraint": null, "bias_constraint": null}, "name": "conv2_block1_3_conv", "inbound_nodes": [[["conv2_block1_2_relu", 0, 0, {}]]]}, {"class_name": "BatchNormalization", "config": {"name": "conv2_block1_0_bn", "trainable": false, "dtype": "float32", "axis": [3], "momentum": 0.99, "epsilon": 1.001e-05, "center": true, "scale": true, "beta_initializer": {"class_name": "Zeros", "config": {}}, "gamma_initializer": {"class_name": "Ones", "config": {}}, "moving_mean_initializer": {"class_name": "Zeros", "config": {}}, "moving_variance_initializer": {"class_name": "Ones", "config": {}}, "beta_regularizer": null, "gamma_regularizer": null, "beta_constraint": null, "gamma_constraint": null}, "name": "conv2_block1_0_bn", "inbound_nodes": [[["conv2_block1_0_conv", 0, 0, {}]]]}, {"class_name": "BatchNormalization", "config": {"name": "conv2_block1_3_bn", "trainable": false, "dtype": "float32", "axis": [3], "momentum": 0.99, "epsilon": 1.001e-05, "center": true, "scale": true, "beta_initializer": {"class_name": "Zeros", "config": {}}, "gamma_initializer": {"class_name": "Ones", "config": {}}, "moving_mean_initializer": {"class_name": "Zeros", "config": {}}, "moving_variance_initializer": {"class_name": "Ones", "config": {}}, "beta_regularizer": null, "gamma_regularizer": null, "beta_constraint": null, "gamma_constraint": null}, "name": "conv2_block1_3_bn", "inbound_nodes": [[["conv2_block1_3_conv", 0, 0, {}]]]}, {"class_name": "Add", "config": {"name": "conv2_block1_add", "trainable": false, "dtype": "float32"}, "name": "conv2_block1_add", "inbound_nodes": [[["conv2_block1_0_bn", 0, 0, {}], ["conv2_block1_3_bn", 0, 0, {}]]]}, {"class_name": "Activation", "config": {"name": "conv2_block1_out", "trainable": false, "dtype": "float32", "activation": "relu"}, "name": "conv2_block1_out", "inbound_nodes": [[["conv2_block1_add", 0, 0, {}]]]}, {"class_name": "Conv2D", "config": {"name": "conv2_block2_1_conv", "trainable": false, "dtype": "float32", "filters": 64, "kernel_size": [1, 1], "strides": [1, 1], "padding": "valid", "data_format": "channels_last", "dilation_rate": [1, 1], "activation": "linear", "use_bias": true, "kernel_initializer": {"class_name": "GlorotUniform", "config": {"seed": null}}, "bias_initializer": {"class_name": "Zeros", "config": {}}, "kernel_regularizer": null, "bias_regularizer": null, "activity_regularizer": null, "kernel_constraint": null, "bias_constraint": null}, "name": "conv2_block2_1_conv", "inbound_nodes": [[["conv2_block1_out", 0, 0, {}]]]}, {"class_name": "BatchNormalization", "config": {"name": "conv2_block2_1_bn", "trainable": false, "dtype": "float32", "axis": [3], "momentum": 0.99, "epsilon": 1.001e-05, "center": true, "scale": true, "beta_initializer": {"class_name": "Zeros", "config": {}}, "gamma_initializer": {"class_name": "Ones", "config": {}}, "moving_mean_initializer": {"class_name": "Zeros", "config": {}}, "moving_variance_initializer": {"class_name": "Ones", "config": {}}, "beta_regularizer": null, "gamma_regularizer": null, "beta_constraint": null, "gamma_constraint": null}, "name": "conv2_block2_1_bn", "inbound_nodes": [[["conv2_block2_1_conv", 0, 0, {}]]]}, {"class_name": "Activation", "config": {"name": "conv2_block2_1_relu", "trainable": false, "dtype": "float32", "activation": "relu"}, "name": "conv2_block2_1_relu", "inbound_nodes": [[["conv2_block2_1_bn", 0, 0, {}]]]}, {"class_name": "Conv2D", "config": {"name": "conv2_block2_2_conv", "trainable": false, "dtype": "float32", "filters": 64, "kernel_size": [3, 3], "strides": [1, 1], "padding": "same", "data_format": "channels_last", "dilation_rate": [1, 1], "activation": "linear", "use_bias": true, "kernel_initializer": {"class_name": "GlorotUniform", "config": {"seed": null}}, "bias_initializer": {"class_name": "Zeros", "config": {}}, "kernel_regularizer": null, "bias_regularizer": null, "activity_regularizer": null, "kernel_constraint": null, "bias_constraint": null}, "name": "conv2_block2_2_conv", "inbound_nodes": [[["conv2_block2_1_relu", 0, 0, {}]]]}, {"class_name": "BatchNormalization", "config": {"name": "conv2_block2_2_bn", "trainable": false, "dtype": "float32", "axis": [3], "momentum": 0.99, "epsilon": 1.001e-05, "center": true, "scale": true, "beta_initializer": {"class_name": "Zeros", "config": {}}, "gamma_initializer": {"class_name": "Ones", "config": {}}, "moving_mean_initializer": {"class_name": "Zeros", "config": {}}, "moving_variance_initializer": {"class_name": "Ones", "config": {}}, "beta_regularizer": null, "gamma_regularizer": null, "beta_constraint": null, "gamma_constraint": null}, "name": "conv2_block2_2_bn", "inbound_nodes": [[["conv2_block2_2_conv", 0, 0, {}]]]}, {"class_name": "Activation", "config": {"name": "conv2_block2_2_relu", "trainable": false, "dtype": "float32", "activation": "relu"}, "name": "conv2_block2_2_relu", "inbound_nodes": [[["conv2_block2_2_bn", 0, 0, {}]]]}, {"class_name": "Conv2D", "config": {"name": "conv2_block2_3_conv", "trainable": false, "dtype": "float32", "filters": 256, "kernel_size": [1, 1], "strides": [1, 1], "padding": "valid", "data_format": "channels_last", "dilation_rate": [1, 1], "activation": "linear", "use_bias": true, "kernel_initializer": {"class_name": "GlorotUniform", "config": {"seed": null}}, "bias_initializer": {"class_name": "Zeros", "config": {}}, "kernel_regularizer": null, "bias_regularizer": null, "activity_regularizer": null, "kernel_constraint": null, "bias_constraint": null}, "name": "conv2_block2_3_conv", "inbound_nodes": [[["conv2_block2_2_relu", 0, 0, {}]]]}, {"class_name": "BatchNormalization", "config": {"name": "conv2_block2_3_bn", "trainable": false, "dtype": "float32", "axis": [3], "momentum": 0.99, "epsilon": 1.001e-05, "center": true, "scale": true, "beta_initializer": {"class_name": "Zeros", "config": {}}, "gamma_initializer": {"class_name": "Ones", "config": {}}, "moving_mean_initializer": {"class_name": "Zeros", "config": {}}, "moving_variance_initializer": {"class_name": "Ones", "config": {}}, "beta_regularizer": null, "gamma_regularizer": null, "beta_constraint": null, "gamma_constraint": null}, "name": "conv2_block2_3_bn", "inbound_nodes": [[["conv2_block2_3_conv", 0, 0, {}]]]}, {"class_name": "Add", "config": {"name": "conv2_block2_add", "trainable": false, "dtype": "float32"}, "name": "conv2_block2_add", "inbound_nodes": [[["conv2_block1_out", 0, 0, {}], ["conv2_block2_3_bn", 0, 0, {}]]]}, {"class_name": "Activation", "config": {"name": "conv2_block2_out", "trainable": false, "dtype": "float32", "activation": "relu"}, "name": "conv2_block2_out", "inbound_nodes": [[["conv2_block2_add", 0, 0, {}]]]}, {"class_name": "Conv2D", "config": {"name": "conv2_block3_1_conv", "trainable": false, "dtype": "float32", "filters": 64, "kernel_size": [1, 1], "strides": [1, 1], "padding": "valid", "data_format": "channels_last", "dilation_rate": [1, 1], "activation": "linear", "use_bias": true, "kernel_initializer": {"class_name": "GlorotUniform", "config": {"seed": null}}, "bias_initializer": {"class_name": "Zeros", "config": {}}, "kernel_regularizer": null, "bias_regularizer": null, "activity_regularizer": null, "kernel_constraint": null, "bias_constraint": null}, "name": "conv2_block3_1_conv", "inbound_nodes": [[["conv2_block2_out", 0, 0, {}]]]}, {"class_name": "BatchNormalization", "config": {"name": "conv2_block3_1_bn", "trainable": false, "dtype": "float32", "axis": [3], "momentum": 0.99, "epsilon": 1.001e-05, "center": true, "scale": true, "beta_initializer": {"class_name": "Zeros", "config": {}}, "gamma_initializer": {"class_name": "Ones", "config": {}}, "moving_mean_initializer": {"class_name": "Zeros", "config": {}}, "moving_variance_initializer": {"class_name": "Ones", "config": {}}, "beta_regularizer": null, "gamma_regularizer": null, "beta_constraint": null, "gamma_constraint": null}, "name": "conv2_block3_1_bn", "inbound_nodes": [[["conv2_block3_1_conv", 0, 0, {}]]]}, {"class_name": "Activation", "config": {"name": "conv2_block3_1_relu", "trainable": false, "dtype": "float32", "activation": "relu"}, "name": "conv2_block3_1_relu", "inbound_nodes": [[["conv2_block3_1_bn", 0, 0, {}]]]}, {"class_name": "Conv2D", "config": {"name": "conv2_block3_2_conv", "trainable": false, "dtype": "float32", "filters": 64, "kernel_size": [3, 3], "strides": [1, 1], "padding": "same", "data_format": "channels_last", "dilation_rate": [1, 1], "activation": "linear", "use_bias": true, "kernel_initializer": {"class_name": "GlorotUniform", "config": {"seed": null}}, "bias_initializer": {"class_name": "Zeros", "config": {}}, "kernel_regularizer": null, "bias_regularizer": null, "activity_regularizer": null, "kernel_constraint": null, "bias_constraint": null}, "name": "conv2_block3_2_conv", "inbound_nodes": [[["conv2_block3_1_relu", 0, 0, {}]]]}, {"class_name": "BatchNormalization", "config": {"name": "conv2_block3_2_bn", "trainable": false, "dtype": "float32", "axis": [3], "momentum": 0.99, "epsilon": 1.001e-05, "center": true, "scale": true, "beta_initializer": {"class_name": "Zeros", "config": {}}, "gamma_initializer": {"class_name": "Ones", "config": {}}, "moving_mean_initializer": {"class_name": "Zeros", "config": {}}, "moving_variance_initializer": {"class_name": "Ones", "config": {}}, "beta_regularizer": null, "gamma_regularizer": null, "beta_constraint": null, "gamma_constraint": null}, "name": "conv2_block3_2_bn", "inbound_nodes": [[["conv2_block3_2_conv", 0, 0, {}]]]}, {"class_name": "Activation", "config": {"name": "conv2_block3_2_relu", "trainable": false, "dtype": "float32", "activation": "relu"}, "name": "conv2_block3_2_relu", "inbound_nodes": [[["conv2_block3_2_bn", 0, 0, {}]]]}, {"class_name": "Conv2D", "config": {"name": "conv2_block3_3_conv", "trainable": false, "dtype": "float32", "filters": 256, "kernel_size": [1, 1], "strides": [1, 1], "padding": "valid", "data_format": "channels_last", "dilation_rate": [1, 1], "activation": "linear", "use_bias": true, "kernel_initializer": {"class_name": "GlorotUniform", "config": {"seed": null}}, "bias_initializer": {"class_name": "Zeros", "config": {}}, "kernel_regularizer": null, "bias_regularizer": null, "activity_regularizer": null, "kernel_constraint": null, "bias_constraint": null}, "name": "conv2_block3_3_conv", "inbound_nodes": [[["conv2_block3_2_relu", 0, 0, {}]]]}, {"class_name": "BatchNormalization", "config": {"name": "conv2_block3_3_bn", "trainable": false, "dtype": "float32", "axis": [3], "momentum": 0.99, "epsilon": 1.001e-05, "center": true, "scale": true, "beta_initializer": {"class_name": "Zeros", "config": {}}, "gamma_initializer": {"class_name": "Ones", "config": {}}, "moving_mean_initializer": {"class_name": "Zeros", "config": {}}, "moving_variance_initializer": {"class_name": "Ones", "config": {}}, "beta_regularizer": null, "gamma_regularizer": null, "beta_constraint": null, "gamma_constraint": null}, "name": "conv2_block3_3_bn", "inbound_nodes": [[["conv2_block3_3_conv", 0, 0, {}]]]}, {"class_name": "Add", "config": {"name": "conv2_block3_add", "trainable": false, "dtype": "float32"}, "name": "conv2_block3_add", "inbound_nodes": [[["conv2_block2_out", 0, 0, {}], ["conv2_block3_3_bn", 0, 0, {}]]]}, {"class_name": "Activation", "config": {"name": "conv2_block3_out", "trainable": false, "dtype": "float32", "activation": "relu"}, "name": "conv2_block3_out", "inbound_nodes": [[["conv2_block3_add", 0, 0, {}]]]}, {"class_name": "Conv2D", "config": {"name": "conv3_block1_1_conv", "trainable": false, "dtype": "float32", "filters": 128, "kernel_size": [1, 1], "strides": [2, 2], "padding": "valid", "data_format": "channels_last", "dilation_rate": [1, 1], "activation": "linear", "use_bias": true, "kernel_initializer": {"class_name": "GlorotUniform", "config": {"seed": null}}, "bias_initializer": {"class_name": "Zeros", "config": {}}, "kernel_regularizer": null, "bias_regularizer": null, "activity_regularizer": null, "kernel_constraint": null, "bias_constraint": null}, "name": "conv3_block1_1_conv", "inbound_nodes": [[["conv2_block3_out", 0, 0, {}]]]}, {"class_name": "BatchNormalization", "config": {"name": "conv3_block1_1_bn", "trainable": false, "dtype": "float32", "axis": [3], "momentum": 0.99, "epsilon": 1.001e-05, "center": true, "scale": true, "beta_initializer": {"class_name": "Zeros", "config": {}}, "gamma_initializer": {"class_name": "Ones", "config": {}}, "moving_mean_initializer": {"class_name": "Zeros", "config": {}}, "moving_variance_initializer": {"class_name": "Ones", "config": {}}, "beta_regularizer": null, "gamma_regularizer": null, "beta_constraint": null, "gamma_constraint": null}, "name": "conv3_block1_1_bn", "inbound_nodes": [[["conv3_block1_1_conv", 0, 0, {}]]]}, {"class_name": "Activation", "config": {"name": "conv3_block1_1_relu", "trainable": false, "dtype": "float32", "activation": "relu"}, "name": "conv3_block1_1_relu", "inbound_nodes": [[["conv3_block1_1_bn", 0, 0, {}]]]}, {"class_name": "Conv2D", "config": {"name": "conv3_block1_2_conv", "trainable": false, "dtype": "float32", "filters": 128, "kernel_size": [3, 3], "strides": [1, 1], "padding": "same", "data_format": "channels_last", "dilation_rate": [1, 1], "activation": "linear", "use_bias": true, "kernel_initializer": {"class_name": "GlorotUniform", "config": {"seed": null}}, "bias_initializer": {"class_name": "Zeros", "config": {}}, "kernel_regularizer": null, "bias_regularizer": null, "activity_regularizer": null, "kernel_constraint": null, "bias_constraint": null}, "name": "conv3_block1_2_conv", "inbound_nodes": [[["conv3_block1_1_relu", 0, 0, {}]]]}, {"class_name": "BatchNormalization", "config": {"name": "conv3_block1_2_bn", "trainable": false, "dtype": "float32", "axis": [3], "momentum": 0.99, "epsilon": 1.001e-05, "center": true, "scale": true, "beta_initializer": {"class_name": "Zeros", "config": {}}, "gamma_initializer": {"class_name": "Ones", "config": {}}, "moving_mean_initializer": {"class_name": "Zeros", "config": {}}, "moving_variance_initializer": {"class_name": "Ones", "config": {}}, "beta_regularizer": null, "gamma_regularizer": null, "beta_constraint": null, "gamma_constraint": null}, "name": "conv3_block1_2_bn", "inbound_nodes": [[["conv3_block1_2_conv", 0, 0, {}]]]}, {"class_name": "Activation", "config": {"name": "conv3_block1_2_relu", "trainable": false, "dtype": "float32", "activation": "relu"}, "name": "conv3_block1_2_relu", "inbound_nodes": [[["conv3_block1_2_bn", 0, 0, {}]]]}, {"class_name": "Conv2D", "config": {"name": "conv3_block1_0_conv", "trainable": false, "dtype": "float32", "filters": 512, "kernel_size": [1, 1], "strides": [2, 2], "padding": "valid", "data_format": "channels_last", "dilation_rate": [1, 1], "activation": "linear", "use_bias": true, "kernel_initializer": {"class_name": "GlorotUniform", "config": {"seed": null}}, "bias_initializer": {"class_name": "Zeros", "config": {}}, "kernel_regularizer": null, "bias_regularizer": null, "activity_regularizer": null, "kernel_constraint": null, "bias_constraint": null}, "name": "conv3_block1_0_conv", "inbound_nodes": [[["conv2_block3_out", 0, 0, {}]]]}, {"class_name": "Conv2D", "config": {"name": "conv3_block1_3_conv", "trainable": false, "dtype": "float32", "filters": 512, "kernel_size": [1, 1], "strides": [1, 1], "padding": "valid", "data_format": "channels_last", "dilation_rate": [1, 1], "activation": "linear", "use_bias": true, "kernel_initializer": {"class_name": "GlorotUniform", "config": {"seed": null}}, "bias_initializer": {"class_name": "Zeros", "config": {}}, "kernel_regularizer": null, "bias_regularizer": null, "activity_regularizer": null, "kernel_constraint": null, "bias_constraint": null}, "name": "conv3_block1_3_conv", "inbound_nodes": [[["conv3_block1_2_relu", 0, 0, {}]]]}, {"class_name": "BatchNormalization", "config": {"name": "conv3_block1_0_bn", "trainable": false, "dtype": "float32", "axis": [3], "momentum": 0.99, "epsilon": 1.001e-05, "center": true, "scale": true, "beta_initializer": {"class_name": "Zeros", "config": {}}, "gamma_initializer": {"class_name": "Ones", "config": {}}, "moving_mean_initializer": {"class_name": "Zeros", "config": {}}, "moving_variance_initializer": {"class_name": "Ones", "config": {}}, "beta_regularizer": null, "gamma_regularizer": null, "beta_constraint": null, "gamma_constraint": null}, "name": "conv3_block1_0_bn", "inbound_nodes": [[["conv3_block1_0_conv", 0, 0, {}]]]}, {"class_name": "BatchNormalization", "config": {"name": "conv3_block1_3_bn", "trainable": false, "dtype": "float32", "axis": [3], "momentum": 0.99, "epsilon": 1.001e-05, "center": true, "scale": true, "beta_initializer": {"class_name": "Zeros", "config": {}}, "gamma_initializer": {"class_name": "Ones", "config": {}}, "moving_mean_initializer": {"class_name": "Zeros", "config": {}}, "moving_variance_initializer": {"class_name": "Ones", "config": {}}, "beta_regularizer": null, "gamma_regularizer": null, "beta_constraint": null, "gamma_constraint": null}, "name": "conv3_block1_3_bn", "inbound_nodes": [[["conv3_block1_3_conv", 0, 0, {}]]]}, {"class_name": "Add", "config": {"name": "conv3_block1_add", "trainable": false, "dtype": "float32"}, "name": "conv3_block1_add", "inbound_nodes": [[["conv3_block1_0_bn", 0, 0, {}], ["conv3_block1_3_bn", 0, 0, {}]]]}, {"class_name": "Activation", "config": {"name": "conv3_block1_out", "trainable": false, "dtype": "float32", "activation": "relu"}, "name": "conv3_block1_out", "inbound_nodes": [[["conv3_block1_add", 0, 0, {}]]]}, {"class_name": "Conv2D", "config": {"name": "conv3_block2_1_conv", "trainable": false, "dtype": "float32", "filters": 128, "kernel_size": [1, 1], "strides": [1, 1], "padding": "valid", "data_format": "channels_last", "dilation_rate": [1, 1], "activation": "linear", "use_bias": true, "kernel_initializer": {"class_name": "GlorotUniform", "config": {"seed": null}}, "bias_initializer": {"class_name": "Zeros", "config": {}}, "kernel_regularizer": null, "bias_regularizer": null, "activity_regularizer": null, "kernel_constraint": null, "bias_constraint": null}, "name": "conv3_block2_1_conv", "inbound_nodes": [[["conv3_block1_out", 0, 0, {}]]]}, {"class_name": "BatchNormalization", "config": {"name": "conv3_block2_1_bn", "trainable": false, "dtype": "float32", "axis": [3], "momentum": 0.99, "epsilon": 1.001e-05, "center": true, "scale": true, "beta_initializer": {"class_name": "Zeros", "config": {}}, "gamma_initializer": {"class_name": "Ones", "config": {}}, "moving_mean_initializer": {"class_name": "Zeros", "config": {}}, "moving_variance_initializer": {"class_name": "Ones", "config": {}}, "beta_regularizer": null, "gamma_regularizer": null, "beta_constraint": null, "gamma_constraint": null}, "name": "conv3_block2_1_bn", "inbound_nodes": [[["conv3_block2_1_conv", 0, 0, {}]]]}, {"class_name": "Activation", "config": {"name": "conv3_block2_1_relu", "trainable": false, "dtype": "float32", "activation": "relu"}, "name": "conv3_block2_1_relu", "inbound_nodes": [[["conv3_block2_1_bn", 0, 0, {}]]]}, {"class_name": "Conv2D", "config": {"name": "conv3_block2_2_conv", "trainable": false, "dtype": "float32", "filters": 128, "kernel_size": [3, 3], "strides": [1, 1], "padding": "same", "data_format": "channels_last", "dilation_rate": [1, 1], "activation": "linear", "use_bias": true, "kernel_initializer": {"class_name": "GlorotUniform", "config": {"seed": null}}, "bias_initializer": {"class_name": "Zeros", "config": {}}, "kernel_regularizer": null, "bias_regularizer": null, "activity_regularizer": null, "kernel_constraint": null, "bias_constraint": null}, "name": "conv3_block2_2_conv", "inbound_nodes": [[["conv3_block2_1_relu", 0, 0, {}]]]}, {"class_name": "BatchNormalization", "config": {"name": "conv3_block2_2_bn", "trainable": false, "dtype": "float32", "axis": [3], "momentum": 0.99, "epsilon": 1.001e-05, "center": true, "scale": true, "beta_initializer": {"class_name": "Zeros", "config": {}}, "gamma_initializer": {"class_name": "Ones", "config": {}}, "moving_mean_initializer": {"class_name": "Zeros", "config": {}}, "moving_variance_initializer": {"class_name": "Ones", "config": {}}, "beta_regularizer": null, "gamma_regularizer": null, "beta_constraint": null, "gamma_constraint": null}, "name": "conv3_block2_2_bn", "inbound_nodes": [[["conv3_block2_2_conv", 0, 0, {}]]]}, {"class_name": "Activation", "config": {"name": "conv3_block2_2_relu", "trainable": false, "dtype": "float32", "activation": "relu"}, "name": "conv3_block2_2_relu", "inbound_nodes": [[["conv3_block2_2_bn", 0, 0, {}]]]}, {"class_name": "Conv2D", "config": {"name": "conv3_block2_3_conv", "trainable": false, "dtype": "float32", "filters": 512, "kernel_size": [1, 1], "strides": [1, 1], "padding": "valid", "data_format": "channels_last", "dilation_rate": [1, 1], "activation": "linear", "use_bias": true, "kernel_initializer": {"class_name": "GlorotUniform", "config": {"seed": null}}, "bias_initializer": {"class_name": "Zeros", "config": {}}, "kernel_regularizer": null, "bias_regularizer": null, "activity_regularizer": null, "kernel_constraint": null, "bias_constraint": null}, "name": "conv3_block2_3_conv", "inbound_nodes": [[["conv3_block2_2_relu", 0, 0, {}]]]}, {"class_name": "BatchNormalization", "config": {"name": "conv3_block2_3_bn", "trainable": false, "dtype": "float32", "axis": [3], "momentum": 0.99, "epsilon": 1.001e-05, "center": true, "scale": true, "beta_initializer": {"class_name": "Zeros", "config": {}}, "gamma_initializer": {"class_name": "Ones", "config": {}}, "moving_mean_initializer": {"class_name": "Zeros", "config": {}}, "moving_variance_initializer": {"class_name": "Ones", "config": {}}, "beta_regularizer": null, "gamma_regularizer": null, "beta_constraint": null, "gamma_constraint": null}, "name": "conv3_block2_3_bn", "inbound_nodes": [[["conv3_block2_3_conv", 0, 0, {}]]]}, {"class_name": "Add", "config": {"name": "conv3_block2_add", "trainable": false, "dtype": "float32"}, "name": "conv3_block2_add", "inbound_nodes": [[["conv3_block1_out", 0, 0, {}], ["conv3_block2_3_bn", 0, 0, {}]]]}, {"class_name": "Activation", "config": {"name": "conv3_block2_out", "trainable": false, "dtype": "float32", "activation": "relu"}, "name": "conv3_block2_out", "inbound_nodes": [[["conv3_block2_add", 0, 0, {}]]]}, {"class_name": "Conv2D", "config": {"name": "conv3_block3_1_conv", "trainable": false, "dtype": "float32", "filters": 128, "kernel_size": [1, 1], "strides": [1, 1], "padding": "valid", "data_format": "channels_last", "dilation_rate": [1, 1], "activation": "linear", "use_bias": true, "kernel_initializer": {"class_name": "GlorotUniform", "config": {"seed": null}}, "bias_initializer": {"class_name": "Zeros", "config": {}}, "kernel_regularizer": null, "bias_regularizer": null, "activity_regularizer": null, "kernel_constraint": null, "bias_constraint": null}, "name": "conv3_block3_1_conv", "inbound_nodes": [[["conv3_block2_out", 0, 0, {}]]]}, {"class_name": "BatchNormalization", "config": {"name": "conv3_block3_1_bn", "trainable": false, "dtype": "float32", "axis": [3], "momentum": 0.99, "epsilon": 1.001e-05, "center": true, "scale": true, "beta_initializer": {"class_name": "Zeros", "config": {}}, "gamma_initializer": {"class_name": "Ones", "config": {}}, "moving_mean_initializer": {"class_name": "Zeros", "config": {}}, "moving_variance_initializer": {"class_name": "Ones", "config": {}}, "beta_regularizer": null, "gamma_regularizer": null, "beta_constraint": null, "gamma_constraint": null}, "name": "conv3_block3_1_bn", "inbound_nodes": [[["conv3_block3_1_conv", 0, 0, {}]]]}, {"class_name": "Activation", "config": {"name": "conv3_block3_1_relu", "trainable": false, "dtype": "float32", "activation": "relu"}, "name": "conv3_block3_1_relu", "inbound_nodes": [[["conv3_block3_1_bn", 0, 0, {}]]]}, {"class_name": "Conv2D", "config": {"name": "conv3_block3_2_conv", "trainable": false, "dtype": "float32", "filters": 128, "kernel_size": [3, 3], "strides": [1, 1], "padding": "same", "data_format": "channels_last", "dilation_rate": [1, 1], "activation": "linear", "use_bias": true, "kernel_initializer": {"class_name": "GlorotUniform", "config": {"seed": null}}, "bias_initializer": {"class_name": "Zeros", "config": {}}, "kernel_regularizer": null, "bias_regularizer": null, "activity_regularizer": null, "kernel_constraint": null, "bias_constraint": null}, "name": "conv3_block3_2_conv", "inbound_nodes": [[["conv3_block3_1_relu", 0, 0, {}]]]}, {"class_name": "BatchNormalization", "config": {"name": "conv3_block3_2_bn", "trainable": false, "dtype": "float32", "axis": [3], "momentum": 0.99, "epsilon": 1.001e-05, "center": true, "scale": true, "beta_initializer": {"class_name": "Zeros", "config": {}}, "gamma_initializer": {"class_name": "Ones", "config": {}}, "moving_mean_initializer": {"class_name": "Zeros", "config": {}}, "moving_variance_initializer": {"class_name": "Ones", "config": {}}, "beta_regularizer": null, "gamma_regularizer": null, "beta_constraint": null, "gamma_constraint": null}, "name": "conv3_block3_2_bn", "inbound_nodes": [[["conv3_block3_2_conv", 0, 0, {}]]]}, {"class_name": "Activation", "config": {"name": "conv3_block3_2_relu", "trainable": false, "dtype": "float32", "activation": "relu"}, "name": "conv3_block3_2_relu", "inbound_nodes": [[["conv3_block3_2_bn", 0, 0, {}]]]}, {"class_name": "Conv2D", "config": {"name": "conv3_block3_3_conv", "trainable": false, "dtype": "float32", "filters": 512, "kernel_size": [1, 1], "strides": [1, 1], "padding": "valid", "data_format": "channels_last", "dilation_rate": [1, 1], "activation": "linear", "use_bias": true, "kernel_initializer": {"class_name": "GlorotUniform", "config": {"seed": null}}, "bias_initializer": {"class_name": "Zeros", "config": {}}, "kernel_regularizer": null, "bias_regularizer": null, "activity_regularizer": null, "kernel_constraint": null, "bias_constraint": null}, "name": "conv3_block3_3_conv", "inbound_nodes": [[["conv3_block3_2_relu", 0, 0, {}]]]}, {"class_name": "BatchNormalization", "config": {"name": "conv3_block3_3_bn", "trainable": false, "dtype": "float32", "axis": [3], "momentum": 0.99, "epsilon": 1.001e-05, "center": true, "scale": true, "beta_initializer": {"class_name": "Zeros", "config": {}}, "gamma_initializer": {"class_name": "Ones", "config": {}}, "moving_mean_initializer": {"class_name": "Zeros", "config": {}}, "moving_variance_initializer": {"class_name": "Ones", "config": {}}, "beta_regularizer": null, "gamma_regularizer": null, "beta_constraint": null, "gamma_constraint": null}, "name": "conv3_block3_3_bn", "inbound_nodes": [[["conv3_block3_3_conv", 0, 0, {}]]]}, {"class_name": "Add", "config": {"name": "conv3_block3_add", "trainable": false, "dtype": "float32"}, "name": "conv3_block3_add", "inbound_nodes": [[["conv3_block2_out", 0, 0, {}], ["conv3_block3_3_bn", 0, 0, {}]]]}, {"class_name": "Activation", "config": {"name": "conv3_block3_out", "trainable": false, "dtype": "float32", "activation": "relu"}, "name": "conv3_block3_out", "inbound_nodes": [[["conv3_block3_add", 0, 0, {}]]]}, {"class_name": "Conv2D", "config": {"name": "conv3_block4_1_conv", "trainable": false, "dtype": "float32", "filters": 128, "kernel_size": [1, 1], "strides": [1, 1], "padding": "valid", "data_format": "channels_last", "dilation_rate": [1, 1], "activation": "linear", "use_bias": true, "kernel_initializer": {"class_name": "GlorotUniform", "config": {"seed": null}}, "bias_initializer": {"class_name": "Zeros", "config": {}}, "kernel_regularizer": null, "bias_regularizer": null, "activity_regularizer": null, "kernel_constraint": null, "bias_constraint": null}, "name": "conv3_block4_1_conv", "inbound_nodes": [[["conv3_block3_out", 0, 0, {}]]]}, {"class_name": "BatchNormalization", "config": {"name": "conv3_block4_1_bn", "trainable": false, "dtype": "float32", "axis": [3], "momentum": 0.99, "epsilon": 1.001e-05, "center": true, "scale": true, "beta_initializer": {"class_name": "Zeros", "config": {}}, "gamma_initializer": {"class_name": "Ones", "config": {}}, "moving_mean_initializer": {"class_name": "Zeros", "config": {}}, "moving_variance_initializer": {"class_name": "Ones", "config": {}}, "beta_regularizer": null, "gamma_regularizer": null, "beta_constraint": null, "gamma_constraint": null}, "name": "conv3_block4_1_bn", "inbound_nodes": [[["conv3_block4_1_conv", 0, 0, {}]]]}, {"class_name": "Activation", "config": {"name": "conv3_block4_1_relu", "trainable": false, "dtype": "float32", "activation": "relu"}, "name": "conv3_block4_1_relu", "inbound_nodes": [[["conv3_block4_1_bn", 0, 0, {}]]]}, {"class_name": "Conv2D", "config": {"name": "conv3_block4_2_conv", "trainable": false, "dtype": "float32", "filters": 128, "kernel_size": [3, 3], "strides": [1, 1], "padding": "same", "data_format": "channels_last", "dilation_rate": [1, 1], "activation": "linear", "use_bias": true, "kernel_initializer": {"class_name": "GlorotUniform", "config": {"seed": null}}, "bias_initializer": {"class_name": "Zeros", "config": {}}, "kernel_regularizer": null, "bias_regularizer": null, "activity_regularizer": null, "kernel_constraint": null, "bias_constraint": null}, "name": "conv3_block4_2_conv", "inbound_nodes": [[["conv3_block4_1_relu", 0, 0, {}]]]}, {"class_name": "BatchNormalization", "config": {"name": "conv3_block4_2_bn", "trainable": false, "dtype": "float32", "axis": [3], "momentum": 0.99, "epsilon": 1.001e-05, "center": true, "scale": true, "beta_initializer": {"class_name": "Zeros", "config": {}}, "gamma_initializer": {"class_name": "Ones", "config": {}}, "moving_mean_initializer": {"class_name": "Zeros", "config": {}}, "moving_variance_initializer": {"class_name": "Ones", "config": {}}, "beta_regularizer": null, "gamma_regularizer": null, "beta_constraint": null, "gamma_constraint": null}, "name": "conv3_block4_2_bn", "inbound_nodes": [[["conv3_block4_2_conv", 0, 0, {}]]]}, {"class_name": "Activation", "config": {"name": "conv3_block4_2_relu", "trainable": false, "dtype": "float32", "activation": "relu"}, "name": "conv3_block4_2_relu", "inbound_nodes": [[["conv3_block4_2_bn", 0, 0, {}]]]}, {"class_name": "Conv2D", "config": {"name": "conv3_block4_3_conv", "trainable": false, "dtype": "float32", "filters": 512, "kernel_size": [1, 1], "strides": [1, 1], "padding": "valid", "data_format": "channels_last", "dilation_rate": [1, 1], "activation": "linear", "use_bias": true, "kernel_initializer": {"class_name": "GlorotUniform", "config": {"seed": null}}, "bias_initializer": {"class_name": "Zeros", "config": {}}, "kernel_regularizer": null, "bias_regularizer": null, "activity_regularizer": null, "kernel_constraint": null, "bias_constraint": null}, "name": "conv3_block4_3_conv", "inbound_nodes": [[["conv3_block4_2_relu", 0, 0, {}]]]}, {"class_name": "BatchNormalization", "config": {"name": "conv3_block4_3_bn", "trainable": false, "dtype": "float32", "axis": [3], "momentum": 0.99, "epsilon": 1.001e-05, "center": true, "scale": true, "beta_initializer": {"class_name": "Zeros", "config": {}}, "gamma_initializer": {"class_name": "Ones", "config": {}}, "moving_mean_initializer": {"class_name": "Zeros", "config": {}}, "moving_variance_initializer": {"class_name": "Ones", "config": {}}, "beta_regularizer": null, "gamma_regularizer": null, "beta_constraint": null, "gamma_constraint": null}, "name": "conv3_block4_3_bn", "inbound_nodes": [[["conv3_block4_3_conv", 0, 0, {}]]]}, {"class_name": "Add", "config": {"name": "conv3_block4_add", "trainable": false, "dtype": "float32"}, "name": "conv3_block4_add", "inbound_nodes": [[["conv3_block3_out", 0, 0, {}], ["conv3_block4_3_bn", 0, 0, {}]]]}, {"class_name": "Activation", "config": {"name": "conv3_block4_out", "trainable": false, "dtype": "float32", "activation": "relu"}, "name": "conv3_block4_out", "inbound_nodes": [[["conv3_block4_add", 0, 0, {}]]]}, {"class_name": "Conv2D", "config": {"name": "conv4_block1_1_conv", "trainable": false, "dtype": "float32", "filters": 256, "kernel_size": [1, 1], "strides": [2, 2], "padding": "valid", "data_format": "channels_last", "dilation_rate": [1, 1], "activation": "linear", "use_bias": true, "kernel_initializer": {"class_name": "GlorotUniform", "config": {"seed": null}}, "bias_initializer": {"class_name": "Zeros", "config": {}}, "kernel_regularizer": null, "bias_regularizer": null, "activity_regularizer": null, "kernel_constraint": null, "bias_constraint": null}, "name": "conv4_block1_1_conv", "inbound_nodes": [[["conv3_block4_out", 0, 0, {}]]]}, {"class_name": "BatchNormalization", "config": {"name": "conv4_block1_1_bn", "trainable": false, "dtype": "float32", "axis": [3], "momentum": 0.99, "epsilon": 1.001e-05, "center": true, "scale": true, "beta_initializer": {"class_name": "Zeros", "config": {}}, "gamma_initializer": {"class_name": "Ones", "config": {}}, "moving_mean_initializer": {"class_name": "Zeros", "config": {}}, "moving_variance_initializer": {"class_name": "Ones", "config": {}}, "beta_regularizer": null, "gamma_regularizer": null, "beta_constraint": null, "gamma_constraint": null}, "name": "conv4_block1_1_bn", "inbound_nodes": [[["conv4_block1_1_conv", 0, 0, {}]]]}, {"class_name": "Activation", "config": {"name": "conv4_block1_1_relu", "trainable": false, "dtype": "float32", "activation": "relu"}, "name": "conv4_block1_1_relu", "inbound_nodes": [[["conv4_block1_1_bn", 0, 0, {}]]]}, {"class_name": "Conv2D", "config": {"name": "conv4_block1_2_conv", "trainable": false, "dtype": "float32", "filters": 256, "kernel_size": [3, 3], "strides": [1, 1], "padding": "same", "data_format": "channels_last", "dilation_rate": [1, 1], "activation": "linear", "use_bias": true, "kernel_initializer": {"class_name": "GlorotUniform", "config": {"seed": null}}, "bias_initializer": {"class_name": "Zeros", "config": {}}, "kernel_regularizer": null, "bias_regularizer": null, "activity_regularizer": null, "kernel_constraint": null, "bias_constraint": null}, "name": "conv4_block1_2_conv", "inbound_nodes": [[["conv4_block1_1_relu", 0, 0, {}]]]}, {"class_name": "BatchNormalization", "config": {"name": "conv4_block1_2_bn", "trainable": false, "dtype": "float32", "axis": [3], "momentum": 0.99, "epsilon": 1.001e-05, "center": true, "scale": true, "beta_initializer": {"class_name": "Zeros", "config": {}}, "gamma_initializer": {"class_name": "Ones", "config": {}}, "moving_mean_initializer": {"class_name": "Zeros", "config": {}}, "moving_variance_initializer": {"class_name": "Ones", "config": {}}, "beta_regularizer": null, "gamma_regularizer": null, "beta_constraint": null, "gamma_constraint": null}, "name": "conv4_block1_2_bn", "inbound_nodes": [[["conv4_block1_2_conv", 0, 0, {}]]]}, {"class_name": "Activation", "config": {"name": "conv4_block1_2_relu", "trainable": false, "dtype": "float32", "activation": "relu"}, "name": "conv4_block1_2_relu", "inbound_nodes": [[["conv4_block1_2_bn", 0, 0, {}]]]}, {"class_name": "Conv2D", "config": {"name": "conv4_block1_0_conv", "trainable": false, "dtype": "float32", "filters": 1024, "kernel_size": [1, 1], "strides": [2, 2], "padding": "valid", "data_format": "channels_last", "dilation_rate": [1, 1], "activation": "linear", "use_bias": true, "kernel_initializer": {"class_name": "GlorotUniform", "config": {"seed": null}}, "bias_initializer": {"class_name": "Zeros", "config": {}}, "kernel_regularizer": null, "bias_regularizer": null, "activity_regularizer": null, "kernel_constraint": null, "bias_constraint": null}, "name": "conv4_block1_0_conv", "inbound_nodes": [[["conv3_block4_out", 0, 0, {}]]]}, {"class_name": "Conv2D", "config": {"name": "conv4_block1_3_conv", "trainable": false, "dtype": "float32", "filters": 1024, "kernel_size": [1, 1], "strides": [1, 1], "padding": "valid", "data_format": "channels_last", "dilation_rate": [1, 1], "activation": "linear", "use_bias": true, "kernel_initializer": {"class_name": "GlorotUniform", "config": {"seed": null}}, "bias_initializer": {"class_name": "Zeros", "config": {}}, "kernel_regularizer": null, "bias_regularizer": null, "activity_regularizer": null, "kernel_constraint": null, "bias_constraint": null}, "name": "conv4_block1_3_conv", "inbound_nodes": [[["conv4_block1_2_relu", 0, 0, {}]]]}, {"class_name": "BatchNormalization", "config": {"name": "conv4_block1_0_bn", "trainable": false, "dtype": "float32", "axis": [3], "momentum": 0.99, "epsilon": 1.001e-05, "center": true, "scale": true, "beta_initializer": {"class_name": "Zeros", "config": {}}, "gamma_initializer": {"class_name": "Ones", "config": {}}, "moving_mean_initializer": {"class_name": "Zeros", "config": {}}, "moving_variance_initializer": {"class_name": "Ones", "config": {}}, "beta_regularizer": null, "gamma_regularizer": null, "beta_constraint": null, "gamma_constraint": null}, "name": "conv4_block1_0_bn", "inbound_nodes": [[["conv4_block1_0_conv", 0, 0, {}]]]}, {"class_name": "BatchNormalization", "config": {"name": "conv4_block1_3_bn", "trainable": false, "dtype": "float32", "axis": [3], "momentum": 0.99, "epsilon": 1.001e-05, "center": true, "scale": true, "beta_initializer": {"class_name": "Zeros", "config": {}}, "gamma_initializer": {"class_name": "Ones", "config": {}}, "moving_mean_initializer": {"class_name": "Zeros", "config": {}}, "moving_variance_initializer": {"class_name": "Ones", "config": {}}, "beta_regularizer": null, "gamma_regularizer": null, "beta_constraint": null, "gamma_constraint": null}, "name": "conv4_block1_3_bn", "inbound_nodes": [[["conv4_block1_3_conv", 0, 0, {}]]]}, {"class_name": "Add", "config": {"name": "conv4_block1_add", "trainable": false, "dtype": "float32"}, "name": "conv4_block1_add", "inbound_nodes": [[["conv4_block1_0_bn", 0, 0, {}], ["conv4_block1_3_bn", 0, 0, {}]]]}, {"class_name": "Activation", "config": {"name": "conv4_block1_out", "trainable": false, "dtype": "float32", "activation": "relu"}, "name": "conv4_block1_out", "inbound_nodes": [[["conv4_block1_add", 0, 0, {}]]]}, {"class_name": "Conv2D", "config": {"name": "conv4_block2_1_conv", "trainable": false, "dtype": "float32", "filters": 256, "kernel_size": [1, 1], "strides": [1, 1], "padding": "valid", "data_format": "channels_last", "dilation_rate": [1, 1], "activation": "linear", "use_bias": true, "kernel_initializer": {"class_name": "GlorotUniform", "config": {"seed": null}}, "bias_initializer": {"class_name": "Zeros", "config": {}}, "kernel_regularizer": null, "bias_regularizer": null, "activity_regularizer": null, "kernel_constraint": null, "bias_constraint": null}, "name": "conv4_block2_1_conv", "inbound_nodes": [[["conv4_block1_out", 0, 0, {}]]]}, {"class_name": "BatchNormalization", "config": {"name": "conv4_block2_1_bn", "trainable": false, "dtype": "float32", "axis": [3], "momentum": 0.99, "epsilon": 1.001e-05, "center": true, "scale": true, "beta_initializer": {"class_name": "Zeros", "config": {}}, "gamma_initializer": {"class_name": "Ones", "config": {}}, "moving_mean_initializer": {"class_name": "Zeros", "config": {}}, "moving_variance_initializer": {"class_name": "Ones", "config": {}}, "beta_regularizer": null, "gamma_regularizer": null, "beta_constraint": null, "gamma_constraint": null}, "name": "conv4_block2_1_bn", "inbound_nodes": [[["conv4_block2_1_conv", 0, 0, {}]]]}, {"class_name": "Activation", "config": {"name": "conv4_block2_1_relu", "trainable": false, "dtype": "float32", "activation": "relu"}, "name": "conv4_block2_1_relu", "inbound_nodes": [[["conv4_block2_1_bn", 0, 0, {}]]]}, {"class_name": "Conv2D", "config": {"name": "conv4_block2_2_conv", "trainable": false, "dtype": "float32", "filters": 256, "kernel_size": [3, 3], "strides": [1, 1], "padding": "same", "data_format": "channels_last", "dilation_rate": [1, 1], "activation": "linear", "use_bias": true, "kernel_initializer": {"class_name": "GlorotUniform", "config": {"seed": null}}, "bias_initializer": {"class_name": "Zeros", "config": {}}, "kernel_regularizer": null, "bias_regularizer": null, "activity_regularizer": null, "kernel_constraint": null, "bias_constraint": null}, "name": "conv4_block2_2_conv", "inbound_nodes": [[["conv4_block2_1_relu", 0, 0, {}]]]}, {"class_name": "BatchNormalization", "config": {"name": "conv4_block2_2_bn", "trainable": false, "dtype": "float32", "axis": [3], "momentum": 0.99, "epsilon": 1.001e-05, "center": true, "scale": true, "beta_initializer": {"class_name": "Zeros", "config": {}}, "gamma_initializer": {"class_name": "Ones", "config": {}}, "moving_mean_initializer": {"class_name": "Zeros", "config": {}}, "moving_variance_initializer": {"class_name": "Ones", "config": {}}, "beta_regularizer": null, "gamma_regularizer": null, "beta_constraint": null, "gamma_constraint": null}, "name": "conv4_block2_2_bn", "inbound_nodes": [[["conv4_block2_2_conv", 0, 0, {}]]]}, {"class_name": "Activation", "config": {"name": "conv4_block2_2_relu", "trainable": false, "dtype": "float32", "activation": "relu"}, "name": "conv4_block2_2_relu", "inbound_nodes": [[["conv4_block2_2_bn", 0, 0, {}]]]}, {"class_name": "Conv2D", "config": {"name": "conv4_block2_3_conv", "trainable": false, "dtype": "float32", "filters": 1024, "kernel_size": [1, 1], "strides": [1, 1], "padding": "valid", "data_format": "channels_last", "dilation_rate": [1, 1], "activation": "linear", "use_bias": true, "kernel_initializer": {"class_name": "GlorotUniform", "config": {"seed": null}}, "bias_initializer": {"class_name": "Zeros", "config": {}}, "kernel_regularizer": null, "bias_regularizer": null, "activity_regularizer": null, "kernel_constraint": null, "bias_constraint": null}, "name": "conv4_block2_3_conv", "inbound_nodes": [[["conv4_block2_2_relu", 0, 0, {}]]]}, {"class_name": "BatchNormalization", "config": {"name": "conv4_block2_3_bn", "trainable": false, "dtype": "float32", "axis": [3], "momentum": 0.99, "epsilon": 1.001e-05, "center": true, "scale": true, "beta_initializer": {"class_name": "Zeros", "config": {}}, "gamma_initializer": {"class_name": "Ones", "config": {}}, "moving_mean_initializer": {"class_name": "Zeros", "config": {}}, "moving_variance_initializer": {"class_name": "Ones", "config": {}}, "beta_regularizer": null, "gamma_regularizer": null, "beta_constraint": null, "gamma_constraint": null}, "name": "conv4_block2_3_bn", "inbound_nodes": [[["conv4_block2_3_conv", 0, 0, {}]]]}, {"class_name": "Add", "config": {"name": "conv4_block2_add", "trainable": false, "dtype": "float32"}, "name": "conv4_block2_add", "inbound_nodes": [[["conv4_block1_out", 0, 0, {}], ["conv4_block2_3_bn", 0, 0, {}]]]}, {"class_name": "Activation", "config": {"name": "conv4_block2_out", "trainable": false, "dtype": "float32", "activation": "relu"}, "name": "conv4_block2_out", "inbound_nodes": [[["conv4_block2_add", 0, 0, {}]]]}, {"class_name": "Conv2D", "config": {"name": "conv4_block3_1_conv", "trainable": false, "dtype": "float32", "filters": 256, "kernel_size": [1, 1], "strides": [1, 1], "padding": "valid", "data_format": "channels_last", "dilation_rate": [1, 1], "activation": "linear", "use_bias": true, "kernel_initializer": {"class_name": "GlorotUniform", "config": {"seed": null}}, "bias_initializer": {"class_name": "Zeros", "config": {}}, "kernel_regularizer": null, "bias_regularizer": null, "activity_regularizer": null, "kernel_constraint": null, "bias_constraint": null}, "name": "conv4_block3_1_conv", "inbound_nodes": [[["conv4_block2_out", 0, 0, {}]]]}, {"class_name": "BatchNormalization", "config": {"name": "conv4_block3_1_bn", "trainable": false, "dtype": "float32", "axis": [3], "momentum": 0.99, "epsilon": 1.001e-05, "center": true, "scale": true, "beta_initializer": {"class_name": "Zeros", "config": {}}, "gamma_initializer": {"class_name": "Ones", "config": {}}, "moving_mean_initializer": {"class_name": "Zeros", "config": {}}, "moving_variance_initializer": {"class_name": "Ones", "config": {}}, "beta_regularizer": null, "gamma_regularizer": null, "beta_constraint": null, "gamma_constraint": null}, "name": "conv4_block3_1_bn", "inbound_nodes": [[["conv4_block3_1_conv", 0, 0, {}]]]}, {"class_name": "Activation", "config": {"name": "conv4_block3_1_relu", "trainable": false, "dtype": "float32", "activation": "relu"}, "name": "conv4_block3_1_relu", "inbound_nodes": [[["conv4_block3_1_bn", 0, 0, {}]]]}, {"class_name": "Conv2D", "config": {"name": "conv4_block3_2_conv", "trainable": false, "dtype": "float32", "filters": 256, "kernel_size": [3, 3], "strides": [1, 1], "padding": "same", "data_format": "channels_last", "dilation_rate": [1, 1], "activation": "linear", "use_bias": true, "kernel_initializer": {"class_name": "GlorotUniform", "config": {"seed": null}}, "bias_initializer": {"class_name": "Zeros", "config": {}}, "kernel_regularizer": null, "bias_regularizer": null, "activity_regularizer": null, "kernel_constraint": null, "bias_constraint": null}, "name": "conv4_block3_2_conv", "inbound_nodes": [[["conv4_block3_1_relu", 0, 0, {}]]]}, {"class_name": "BatchNormalization", "config": {"name": "conv4_block3_2_bn", "trainable": false, "dtype": "float32", "axis": [3], "momentum": 0.99, "epsilon": 1.001e-05, "center": true, "scale": true, "beta_initializer": {"class_name": "Zeros", "config": {}}, "gamma_initializer": {"class_name": "Ones", "config": {}}, "moving_mean_initializer": {"class_name": "Zeros", "config": {}}, "moving_variance_initializer": {"class_name": "Ones", "config": {}}, "beta_regularizer": null, "gamma_regularizer": null, "beta_constraint": null, "gamma_constraint": null}, "name": "conv4_block3_2_bn", "inbound_nodes": [[["conv4_block3_2_conv", 0, 0, {}]]]}, {"class_name": "Activation", "config": {"name": "conv4_block3_2_relu", "trainable": false, "dtype": "float32", "activation": "relu"}, "name": "conv4_block3_2_relu", "inbound_nodes": [[["conv4_block3_2_bn", 0, 0, {}]]]}, {"class_name": "Conv2D", "config": {"name": "conv4_block3_3_conv", "trainable": false, "dtype": "float32", "filters": 1024, "kernel_size": [1, 1], "strides": [1, 1], "padding": "valid", "data_format": "channels_last", "dilation_rate": [1, 1], "activation": "linear", "use_bias": true, "kernel_initializer": {"class_name": "GlorotUniform", "config": {"seed": null}}, "bias_initializer": {"class_name": "Zeros", "config": {}}, "kernel_regularizer": null, "bias_regularizer": null, "activity_regularizer": null, "kernel_constraint": null, "bias_constraint": null}, "name": "conv4_block3_3_conv", "inbound_nodes": [[["conv4_block3_2_relu", 0, 0, {}]]]}, {"class_name": "BatchNormalization", "config": {"name": "conv4_block3_3_bn", "trainable": false, "dtype": "float32", "axis": [3], "momentum": 0.99, "epsilon": 1.001e-05, "center": true, "scale": true, "beta_initializer": {"class_name": "Zeros", "config": {}}, "gamma_initializer": {"class_name": "Ones", "config": {}}, "moving_mean_initializer": {"class_name": "Zeros", "config": {}}, "moving_variance_initializer": {"class_name": "Ones", "config": {}}, "beta_regularizer": null, "gamma_regularizer": null, "beta_constraint": null, "gamma_constraint": null}, "name": "conv4_block3_3_bn", "inbound_nodes": [[["conv4_block3_3_conv", 0, 0, {}]]]}, {"class_name": "Add", "config": {"name": "conv4_block3_add", "trainable": false, "dtype": "float32"}, "name": "conv4_block3_add", "inbound_nodes": [[["conv4_block2_out", 0, 0, {}], ["conv4_block3_3_bn", 0, 0, {}]]]}, {"class_name": "Activation", "config": {"name": "conv4_block3_out", "trainable": false, "dtype": "float32", "activation": "relu"}, "name": "conv4_block3_out", "inbound_nodes": [[["conv4_block3_add", 0, 0, {}]]]}, {"class_name": "Conv2D", "config": {"name": "conv4_block4_1_conv", "trainable": false, "dtype": "float32", "filters": 256, "kernel_size": [1, 1], "strides": [1, 1], "padding": "valid", "data_format": "channels_last", "dilation_rate": [1, 1], "activation": "linear", "use_bias": true, "kernel_initializer": {"class_name": "GlorotUniform", "config": {"seed": null}}, "bias_initializer": {"class_name": "Zeros", "config": {}}, "kernel_regularizer": null, "bias_regularizer": null, "activity_regularizer": null, "kernel_constraint": null, "bias_constraint": null}, "name": "conv4_block4_1_conv", "inbound_nodes": [[["conv4_block3_out", 0, 0, {}]]]}, {"class_name": "BatchNormalization", "config": {"name": "conv4_block4_1_bn", "trainable": false, "dtype": "float32", "axis": [3], "momentum": 0.99, "epsilon": 1.001e-05, "center": true, "scale": true, "beta_initializer": {"class_name": "Zeros", "config": {}}, "gamma_initializer": {"class_name": "Ones", "config": {}}, "moving_mean_initializer": {"class_name": "Zeros", "config": {}}, "moving_variance_initializer": {"class_name": "Ones", "config": {}}, "beta_regularizer": null, "gamma_regularizer": null, "beta_constraint": null, "gamma_constraint": null}, "name": "conv4_block4_1_bn", "inbound_nodes": [[["conv4_block4_1_conv", 0, 0, {}]]]}, {"class_name": "Activation", "config": {"name": "conv4_block4_1_relu", "trainable": false, "dtype": "float32", "activation": "relu"}, "name": "conv4_block4_1_relu", "inbound_nodes": [[["conv4_block4_1_bn", 0, 0, {}]]]}, {"class_name": "Conv2D", "config": {"name": "conv4_block4_2_conv", "trainable": false, "dtype": "float32", "filters": 256, "kernel_size": [3, 3], "strides": [1, 1], "padding": "same", "data_format": "channels_last", "dilation_rate": [1, 1], "activation": "linear", "use_bias": true, "kernel_initializer": {"class_name": "GlorotUniform", "config": {"seed": null}}, "bias_initializer": {"class_name": "Zeros", "config": {}}, "kernel_regularizer": null, "bias_regularizer": null, "activity_regularizer": null, "kernel_constraint": null, "bias_constraint": null}, "name": "conv4_block4_2_conv", "inbound_nodes": [[["conv4_block4_1_relu", 0, 0, {}]]]}, {"class_name": "BatchNormalization", "config": {"name": "conv4_block4_2_bn", "trainable": false, "dtype": "float32", "axis": [3], "momentum": 0.99, "epsilon": 1.001e-05, "center": true, "scale": true, "beta_initializer": {"class_name": "Zeros", "config": {}}, "gamma_initializer": {"class_name": "Ones", "config": {}}, "moving_mean_initializer": {"class_name": "Zeros", "config": {}}, "moving_variance_initializer": {"class_name": "Ones", "config": {}}, "beta_regularizer": null, "gamma_regularizer": null, "beta_constraint": null, "gamma_constraint": null}, "name": "conv4_block4_2_bn", "inbound_nodes": [[["conv4_block4_2_conv", 0, 0, {}]]]}, {"class_name": "Activation", "config": {"name": "conv4_block4_2_relu", "trainable": false, "dtype": "float32", "activation": "relu"}, "name": "conv4_block4_2_relu", "inbound_nodes": [[["conv4_block4_2_bn", 0, 0, {}]]]}, {"class_name": "Conv2D", "config": {"name": "conv4_block4_3_conv", "trainable": false, "dtype": "float32", "filters": 1024, "kernel_size": [1, 1], "strides": [1, 1], "padding": "valid", "data_format": "channels_last", "dilation_rate": [1, 1], "activation": "linear", "use_bias": true, "kernel_initializer": {"class_name": "GlorotUniform", "config": {"seed": null}}, "bias_initializer": {"class_name": "Zeros", "config": {}}, "kernel_regularizer": null, "bias_regularizer": null, "activity_regularizer": null, "kernel_constraint": null, "bias_constraint": null}, "name": "conv4_block4_3_conv", "inbound_nodes": [[["conv4_block4_2_relu", 0, 0, {}]]]}, {"class_name": "BatchNormalization", "config": {"name": "conv4_block4_3_bn", "trainable": false, "dtype": "float32", "axis": [3], "momentum": 0.99, "epsilon": 1.001e-05, "center": true, "scale": true, "beta_initializer": {"class_name": "Zeros", "config": {}}, "gamma_initializer": {"class_name": "Ones", "config": {}}, "moving_mean_initializer": {"class_name": "Zeros", "config": {}}, "moving_variance_initializer": {"class_name": "Ones", "config": {}}, "beta_regularizer": null, "gamma_regularizer": null, "beta_constraint": null, "gamma_constraint": null}, "name": "conv4_block4_3_bn", "inbound_nodes": [[["conv4_block4_3_conv", 0, 0, {}]]]}, {"class_name": "Add", "config": {"name": "conv4_block4_add", "trainable": false, "dtype": "float32"}, "name": "conv4_block4_add", "inbound_nodes": [[["conv4_block3_out", 0, 0, {}], ["conv4_block4_3_bn", 0, 0, {}]]]}, {"class_name": "Activation", "config": {"name": "conv4_block4_out", "trainable": false, "dtype": "float32", "activation": "relu"}, "name": "conv4_block4_out", "inbound_nodes": [[["conv4_block4_add", 0, 0, {}]]]}, {"class_name": "Conv2D", "config": {"name": "conv4_block5_1_conv", "trainable": false, "dtype": "float32", "filters": 256, "kernel_size": [1, 1], "strides": [1, 1], "padding": "valid", "data_format": "channels_last", "dilation_rate": [1, 1], "activation": "linear", "use_bias": true, "kernel_initializer": {"class_name": "GlorotUniform", "config": {"seed": null}}, "bias_initializer": {"class_name": "Zeros", "config": {}}, "kernel_regularizer": null, "bias_regularizer": null, "activity_regularizer": null, "kernel_constraint": null, "bias_constraint": null}, "name": "conv4_block5_1_conv", "inbound_nodes": [[["conv4_block4_out", 0, 0, {}]]]}, {"class_name": "BatchNormalization", "config": {"name": "conv4_block5_1_bn", "trainable": false, "dtype": "float32", "axis": [3], "momentum": 0.99, "epsilon": 1.001e-05, "center": true, "scale": true, "beta_initializer": {"class_name": "Zeros", "config": {}}, "gamma_initializer": {"class_name": "Ones", "config": {}}, "moving_mean_initializer": {"class_name": "Zeros", "config": {}}, "moving_variance_initializer": {"class_name": "Ones", "config": {}}, "beta_regularizer": null, "gamma_regularizer": null, "beta_constraint": null, "gamma_constraint": null}, "name": "conv4_block5_1_bn", "inbound_nodes": [[["conv4_block5_1_conv", 0, 0, {}]]]}, {"class_name": "Activation", "config": {"name": "conv4_block5_1_relu", "trainable": false, "dtype": "float32", "activation": "relu"}, "name": "conv4_block5_1_relu", "inbound_nodes": [[["conv4_block5_1_bn", 0, 0, {}]]]}, {"class_name": "Conv2D", "config": {"name": "conv4_block5_2_conv", "trainable": false, "dtype": "float32", "filters": 256, "kernel_size": [3, 3], "strides": [1, 1], "padding": "same", "data_format": "channels_last", "dilation_rate": [1, 1], "activation": "linear", "use_bias": true, "kernel_initializer": {"class_name": "GlorotUniform", "config": {"seed": null}}, "bias_initializer": {"class_name": "Zeros", "config": {}}, "kernel_regularizer": null, "bias_regularizer": null, "activity_regularizer": null, "kernel_constraint": null, "bias_constraint": null}, "name": "conv4_block5_2_conv", "inbound_nodes": [[["conv4_block5_1_relu", 0, 0, {}]]]}, {"class_name": "BatchNormalization", "config": {"name": "conv4_block5_2_bn", "trainable": false, "dtype": "float32", "axis": [3], "momentum": 0.99, "epsilon": 1.001e-05, "center": true, "scale": true, "beta_initializer": {"class_name": "Zeros", "config": {}}, "gamma_initializer": {"class_name": "Ones", "config": {}}, "moving_mean_initializer": {"class_name": "Zeros", "config": {}}, "moving_variance_initializer": {"class_name": "Ones", "config": {}}, "beta_regularizer": null, "gamma_regularizer": null, "beta_constraint": null, "gamma_constraint": null}, "name": "conv4_block5_2_bn", "inbound_nodes": [[["conv4_block5_2_conv", 0, 0, {}]]]}, {"class_name": "Activation", "config": {"name": "conv4_block5_2_relu", "trainable": false, "dtype": "float32", "activation": "relu"}, "name": "conv4_block5_2_relu", "inbound_nodes": [[["conv4_block5_2_bn", 0, 0, {}]]]}, {"class_name": "Conv2D", "config": {"name": "conv4_block5_3_conv", "trainable": false, "dtype": "float32", "filters": 1024, "kernel_size": [1, 1], "strides": [1, 1], "padding": "valid", "data_format": "channels_last", "dilation_rate": [1, 1], "activation": "linear", "use_bias": true, "kernel_initializer": {"class_name": "GlorotUniform", "config": {"seed": null}}, "bias_initializer": {"class_name": "Zeros", "config": {}}, "kernel_regularizer": null, "bias_regularizer": null, "activity_regularizer": null, "kernel_constraint": null, "bias_constraint": null}, "name": "conv4_block5_3_conv", "inbound_nodes": [[["conv4_block5_2_relu", 0, 0, {}]]]}, {"class_name": "BatchNormalization", "config": {"name": "conv4_block5_3_bn", "trainable": false, "dtype": "float32", "axis": [3], "momentum": 0.99, "epsilon": 1.001e-05, "center": true, "scale": true, "beta_initializer": {"class_name": "Zeros", "config": {}}, "gamma_initializer": {"class_name": "Ones", "config": {}}, "moving_mean_initializer": {"class_name": "Zeros", "config": {}}, "moving_variance_initializer": {"class_name": "Ones", "config": {}}, "beta_regularizer": null, "gamma_regularizer": null, "beta_constraint": null, "gamma_constraint": null}, "name": "conv4_block5_3_bn", "inbound_nodes": [[["conv4_block5_3_conv", 0, 0, {}]]]}, {"class_name": "Add", "config": {"name": "conv4_block5_add", "trainable": false, "dtype": "float32"}, "name": "conv4_block5_add", "inbound_nodes": [[["conv4_block4_out", 0, 0, {}], ["conv4_block5_3_bn", 0, 0, {}]]]}, {"class_name": "Activation", "config": {"name": "conv4_block5_out", "trainable": false, "dtype": "float32", "activation": "relu"}, "name": "conv4_block5_out", "inbound_nodes": [[["conv4_block5_add", 0, 0, {}]]]}, {"class_name": "Conv2D", "config": {"name": "conv4_block6_1_conv", "trainable": false, "dtype": "float32", "filters": 256, "kernel_size": [1, 1], "strides": [1, 1], "padding": "valid", "data_format": "channels_last", "dilation_rate": [1, 1], "activation": "linear", "use_bias": true, "kernel_initializer": {"class_name": "GlorotUniform", "config": {"seed": null}}, "bias_initializer": {"class_name": "Zeros", "config": {}}, "kernel_regularizer": null, "bias_regularizer": null, "activity_regularizer": null, "kernel_constraint": null, "bias_constraint": null}, "name": "conv4_block6_1_conv", "inbound_nodes": [[["conv4_block5_out", 0, 0, {}]]]}, {"class_name": "BatchNormalization", "config": {"name": "conv4_block6_1_bn", "trainable": false, "dtype": "float32", "axis": [3], "momentum": 0.99, "epsilon": 1.001e-05, "center": true, "scale": true, "beta_initializer": {"class_name": "Zeros", "config": {}}, "gamma_initializer": {"class_name": "Ones", "config": {}}, "moving_mean_initializer": {"class_name": "Zeros", "config": {}}, "moving_variance_initializer": {"class_name": "Ones", "config": {}}, "beta_regularizer": null, "gamma_regularizer": null, "beta_constraint": null, "gamma_constraint": null}, "name": "conv4_block6_1_bn", "inbound_nodes": [[["conv4_block6_1_conv", 0, 0, {}]]]}, {"class_name": "Activation", "config": {"name": "conv4_block6_1_relu", "trainable": false, "dtype": "float32", "activation": "relu"}, "name": "conv4_block6_1_relu", "inbound_nodes": [[["conv4_block6_1_bn", 0, 0, {}]]]}, {"class_name": "Conv2D", "config": {"name": "conv4_block6_2_conv", "trainable": false, "dtype": "float32", "filters": 256, "kernel_size": [3, 3], "strides": [1, 1], "padding": "same", "data_format": "channels_last", "dilation_rate": [1, 1], "activation": "linear", "use_bias": true, "kernel_initializer": {"class_name": "GlorotUniform", "config": {"seed": null}}, "bias_initializer": {"class_name": "Zeros", "config": {}}, "kernel_regularizer": null, "bias_regularizer": null, "activity_regularizer": null, "kernel_constraint": null, "bias_constraint": null}, "name": "conv4_block6_2_conv", "inbound_nodes": [[["conv4_block6_1_relu", 0, 0, {}]]]}, {"class_name": "BatchNormalization", "config": {"name": "conv4_block6_2_bn", "trainable": false, "dtype": "float32", "axis": [3], "momentum": 0.99, "epsilon": 1.001e-05, "center": true, "scale": true, "beta_initializer": {"class_name": "Zeros", "config": {}}, "gamma_initializer": {"class_name": "Ones", "config": {}}, "moving_mean_initializer": {"class_name": "Zeros", "config": {}}, "moving_variance_initializer": {"class_name": "Ones", "config": {}}, "beta_regularizer": null, "gamma_regularizer": null, "beta_constraint": null, "gamma_constraint": null}, "name": "conv4_block6_2_bn", "inbound_nodes": [[["conv4_block6_2_conv", 0, 0, {}]]]}, {"class_name": "Activation", "config": {"name": "conv4_block6_2_relu", "trainable": false, "dtype": "float32", "activation": "relu"}, "name": "conv4_block6_2_relu", "inbound_nodes": [[["conv4_block6_2_bn", 0, 0, {}]]]}, {"class_name": "Conv2D", "config": {"name": "conv4_block6_3_conv", "trainable": false, "dtype": "float32", "filters": 1024, "kernel_size": [1, 1], "strides": [1, 1], "padding": "valid", "data_format": "channels_last", "dilation_rate": [1, 1], "activation": "linear", "use_bias": true, "kernel_initializer": {"class_name": "GlorotUniform", "config": {"seed": null}}, "bias_initializer": {"class_name": "Zeros", "config": {}}, "kernel_regularizer": null, "bias_regularizer": null, "activity_regularizer": null, "kernel_constraint": null, "bias_constraint": null}, "name": "conv4_block6_3_conv", "inbound_nodes": [[["conv4_block6_2_relu", 0, 0, {}]]]}, {"class_name": "BatchNormalization", "config": {"name": "conv4_block6_3_bn", "trainable": false, "dtype": "float32", "axis": [3], "momentum": 0.99, "epsilon": 1.001e-05, "center": true, "scale": true, "beta_initializer": {"class_name": "Zeros", "config": {}}, "gamma_initializer": {"class_name": "Ones", "config": {}}, "moving_mean_initializer": {"class_name": "Zeros", "config": {}}, "moving_variance_initializer": {"class_name": "Ones", "config": {}}, "beta_regularizer": null, "gamma_regularizer": null, "beta_constraint": null, "gamma_constraint": null}, "name": "conv4_block6_3_bn", "inbound_nodes": [[["conv4_block6_3_conv", 0, 0, {}]]]}, {"class_name": "Add", "config": {"name": "conv4_block6_add", "trainable": false, "dtype": "float32"}, "name": "conv4_block6_add", "inbound_nodes": [[["conv4_block5_out", 0, 0, {}], ["conv4_block6_3_bn", 0, 0, {}]]]}, {"class_name": "Activation", "config": {"name": "conv4_block6_out", "trainable": false, "dtype": "float32", "activation": "relu"}, "name": "conv4_block6_out", "inbound_nodes": [[["conv4_block6_add", 0, 0, {}]]]}, {"class_name": "Conv2D", "config": {"name": "conv5_block1_1_conv", "trainable": false, "dtype": "float32", "filters": 512, "kernel_size": [1, 1], "strides": [2, 2], "padding": "valid", "data_format": "channels_last", "dilation_rate": [1, 1], "activation": "linear", "use_bias": true, "kernel_initializer": {"class_name": "GlorotUniform", "config": {"seed": null}}, "bias_initializer": {"class_name": "Zeros", "config": {}}, "kernel_regularizer": null, "bias_regularizer": null, "activity_regularizer": null, "kernel_constraint": null, "bias_constraint": null}, "name": "conv5_block1_1_conv", "inbound_nodes": [[["conv4_block6_out", 0, 0, {}]]]}, {"class_name": "BatchNormalization", "config": {"name": "conv5_block1_1_bn", "trainable": false, "dtype": "float32", "axis": [3], "momentum": 0.99, "epsilon": 1.001e-05, "center": true, "scale": true, "beta_initializer": {"class_name": "Zeros", "config": {}}, "gamma_initializer": {"class_name": "Ones", "config": {}}, "moving_mean_initializer": {"class_name": "Zeros", "config": {}}, "moving_variance_initializer": {"class_name": "Ones", "config": {}}, "beta_regularizer": null, "gamma_regularizer": null, "beta_constraint": null, "gamma_constraint": null}, "name": "conv5_block1_1_bn", "inbound_nodes": [[["conv5_block1_1_conv", 0, 0, {}]]]}, {"class_name": "Activation", "config": {"name": "conv5_block1_1_relu", "trainable": true, "dtype": "float32", "activation": "relu"}, "name": "conv5_block1_1_relu", "inbound_nodes": [[["conv5_block1_1_bn", 0, 0, {}]]]}, {"class_name": "Conv2D", "config": {"name": "conv5_block1_2_conv", "trainable": true, "dtype": "float32", "filters": 512, "kernel_size": [3, 3], "strides": [1, 1], "padding": "same", "data_format": "channels_last", "dilation_rate": [1, 1], "activation": "linear", "use_bias": true, "kernel_initializer": {"class_name": "GlorotUniform", "config": {"seed": null}}, "bias_initializer": {"class_name": "Zeros", "config": {}}, "kernel_regularizer": null, "bias_regularizer": null, "activity_regularizer": null, "kernel_constraint": null, "bias_constraint": null}, "name": "conv5_block1_2_conv", "inbound_nodes": [[["conv5_block1_1_relu", 0, 0, {}]]]}, {"class_name": "BatchNormalization", "config": {"name": "conv5_block1_2_bn", "trainable": true, "dtype": "float32", "axis": [3], "momentum": 0.99, "epsilon": 1.001e-05, "center": true, "scale": true, "beta_initializer": {"class_name": "Zeros", "config": {}}, "gamma_initializer": {"class_name": "Ones", "config": {}}, "moving_mean_initializer": {"class_name": "Zeros", "config": {}}, "moving_variance_initializer": {"class_name": "Ones", "config": {}}, "beta_regularizer": null, "gamma_regularizer": null, "beta_constraint": null, "gamma_constraint": null}, "name": "conv5_block1_2_bn", "inbound_nodes": [[["conv5_block1_2_conv", 0, 0, {}]]]}, {"class_name": "Activation", "config": {"name": "conv5_block1_2_relu", "trainable": true, "dtype": "float32", "activation": "relu"}, "name": "conv5_block1_2_relu", "inbound_nodes": [[["conv5_block1_2_bn", 0, 0, {}]]]}, {"class_name": "Conv2D", "config": {"name": "conv5_block1_0_conv", "trainable": true, "dtype": "float32", "filters": 2048, "kernel_size": [1, 1], "strides": [2, 2], "padding": "valid", "data_format": "channels_last", "dilation_rate": [1, 1], "activation": "linear", "use_bias": true, "kernel_initializer": {"class_name": "GlorotUniform", "config": {"seed": null}}, "bias_initializer": {"class_name": "Zeros", "config": {}}, "kernel_regularizer": null, "bias_regularizer": null, "activity_regularizer": null, "kernel_constraint": null, "bias_constraint": null}, "name": "conv5_block1_0_conv", "inbound_nodes": [[["conv4_block6_out", 0, 0, {}]]]}, {"class_name": "Conv2D", "config": {"name": "conv5_block1_3_conv", "trainable": true, "dtype": "float32", "filters": 2048, "kernel_size": [1, 1], "strides": [1, 1], "padding": "valid", "data_format": "channels_last", "dilation_rate": [1, 1], "activation": "linear", "use_bias": true, "kernel_initializer": {"class_name": "GlorotUniform", "config": {"seed": null}}, "bias_initializer": {"class_name": "Zeros", "config": {}}, "kernel_regularizer": null, "bias_regularizer": null, "activity_regularizer": null, "kernel_constraint": null, "bias_constraint": null}, "name": "conv5_block1_3_conv", "inbound_nodes": [[["conv5_block1_2_relu", 0, 0, {}]]]}, {"class_name": "BatchNormalization", "config": {"name": "conv5_block1_0_bn", "trainable": true, "dtype": "float32", "axis": [3], "momentum": 0.99, "epsilon": 1.001e-05, "center": true, "scale": true, "beta_initializer": {"class_name": "Zeros", "config": {}}, "gamma_initializer": {"class_name": "Ones", "config": {}}, "moving_mean_initializer": {"class_name": "Zeros", "config": {}}, "moving_variance_initializer": {"class_name": "Ones", "config": {}}, "beta_regularizer": null, "gamma_regularizer": null, "beta_constraint": null, "gamma_constraint": null}, "name": "conv5_block1_0_bn", "inbound_nodes": [[["conv5_block1_0_conv", 0, 0, {}]]]}, {"class_name": "BatchNormalization", "config": {"name": "conv5_block1_3_bn", "trainable": true, "dtype": "float32", "axis": [3], "momentum": 0.99, "epsilon": 1.001e-05, "center": true, "scale": true, "beta_initializer": {"class_name": "Zeros", "config": {}}, "gamma_initializer": {"class_name": "Ones", "config": {}}, "moving_mean_initializer": {"class_name": "Zeros", "config": {}}, "moving_variance_initializer": {"class_name": "Ones", "config": {}}, "beta_regularizer": null, "gamma_regularizer": null, "beta_constraint": null, "gamma_constraint": null}, "name": "conv5_block1_3_bn", "inbound_nodes": [[["conv5_block1_3_conv", 0, 0, {}]]]}, {"class_name": "Add", "config": {"name": "conv5_block1_add", "trainable": true, "dtype": "float32"}, "name": "conv5_block1_add", "inbound_nodes": [[["conv5_block1_0_bn", 0, 0, {}], ["conv5_block1_3_bn", 0, 0, {}]]]}, {"class_name": "Activation", "config": {"name": "conv5_block1_out", "trainable": true, "dtype": "float32", "activation": "relu"}, "name": "conv5_block1_out", "inbound_nodes": [[["conv5_block1_add", 0, 0, {}]]]}, {"class_name": "Conv2D", "config": {"name": "conv5_block2_1_conv", "trainable": true, "dtype": "float32", "filters": 512, "kernel_size": [1, 1], "strides": [1, 1], "padding": "valid", "data_format": "channels_last", "dilation_rate": [1, 1], "activation": "linear", "use_bias": true, "kernel_initializer": {"class_name": "GlorotUniform", "config": {"seed": null}}, "bias_initializer": {"class_name": "Zeros", "config": {}}, "kernel_regularizer": null, "bias_regularizer": null, "activity_regularizer": null, "kernel_constraint": null, "bias_constraint": null}, "name": "conv5_block2_1_conv", "inbound_nodes": [[["conv5_block1_out", 0, 0, {}]]]}, {"class_name": "BatchNormalization", "config": {"name": "conv5_block2_1_bn", "trainable": true, "dtype": "float32", "axis": [3], "momentum": 0.99, "epsilon": 1.001e-05, "center": true, "scale": true, "beta_initializer": {"class_name": "Zeros", "config": {}}, "gamma_initializer": {"class_name": "Ones", "config": {}}, "moving_mean_initializer": {"class_name": "Zeros", "config": {}}, "moving_variance_initializer": {"class_name": "Ones", "config": {}}, "beta_regularizer": null, "gamma_regularizer": null, "beta_constraint": null, "gamma_constraint": null}, "name": "conv5_block2_1_bn", "inbound_nodes": [[["conv5_block2_1_conv", 0, 0, {}]]]}, {"class_name": "Activation", "config": {"name": "conv5_block2_1_relu", "trainable": true, "dtype": "float32", "activation": "relu"}, "name": "conv5_block2_1_relu", "inbound_nodes": [[["conv5_block2_1_bn", 0, 0, {}]]]}, {"class_name": "Conv2D", "config": {"name": "conv5_block2_2_conv", "trainable": true, "dtype": "float32", "filters": 512, "kernel_size": [3, 3], "strides": [1, 1], "padding": "same", "data_format": "channels_last", "dilation_rate": [1, 1], "activation": "linear", "use_bias": true, "kernel_initializer": {"class_name": "GlorotUniform", "config": {"seed": null}}, "bias_initializer": {"class_name": "Zeros", "config": {}}, "kernel_regularizer": null, "bias_regularizer": null, "activity_regularizer": null, "kernel_constraint": null, "bias_constraint": null}, "name": "conv5_block2_2_conv", "inbound_nodes": [[["conv5_block2_1_relu", 0, 0, {}]]]}, {"class_name": "BatchNormalization", "config": {"name": "conv5_block2_2_bn", "trainable": true, "dtype": "float32", "axis": [3], "momentum": 0.99, "epsilon": 1.001e-05, "center": true, "scale": true, "beta_initializer": {"class_name": "Zeros", "config": {}}, "gamma_initializer": {"class_name": "Ones", "config": {}}, "moving_mean_initializer": {"class_name": "Zeros", "config": {}}, "moving_variance_initializer": {"class_name": "Ones", "config": {}}, "beta_regularizer": null, "gamma_regularizer": null, "beta_constraint": null, "gamma_constraint": null}, "name": "conv5_block2_2_bn", "inbound_nodes": [[["conv5_block2_2_conv", 0, 0, {}]]]}, {"class_name": "Activation", "config": {"name": "conv5_block2_2_relu", "trainable": true, "dtype": "float32", "activation": "relu"}, "name": "conv5_block2_2_relu", "inbound_nodes": [[["conv5_block2_2_bn", 0, 0, {}]]]}, {"class_name": "Conv2D", "config": {"name": "conv5_block2_3_conv", "trainable": true, "dtype": "float32", "filters": 2048, "kernel_size": [1, 1], "strides": [1, 1], "padding": "valid", "data_format": "channels_last", "dilation_rate": [1, 1], "activation": "linear", "use_bias": true, "kernel_initializer": {"class_name": "GlorotUniform", "config": {"seed": null}}, "bias_initializer": {"class_name": "Zeros", "config": {}}, "kernel_regularizer": null, "bias_regularizer": null, "activity_regularizer": null, "kernel_constraint": null, "bias_constraint": null}, "name": "conv5_block2_3_conv", "inbound_nodes": [[["conv5_block2_2_relu", 0, 0, {}]]]}, {"class_name": "BatchNormalization", "config": {"name": "conv5_block2_3_bn", "trainable": true, "dtype": "float32", "axis": [3], "momentum": 0.99, "epsilon": 1.001e-05, "center": true, "scale": true, "beta_initializer": {"class_name": "Zeros", "config": {}}, "gamma_initializer": {"class_name": "Ones", "config": {}}, "moving_mean_initializer": {"class_name": "Zeros", "config": {}}, "moving_variance_initializer": {"class_name": "Ones", "config": {}}, "beta_regularizer": null, "gamma_regularizer": null, "beta_constraint": null, "gamma_constraint": null}, "name": "conv5_block2_3_bn", "inbound_nodes": [[["conv5_block2_3_conv", 0, 0, {}]]]}, {"class_name": "Add", "config": {"name": "conv5_block2_add", "trainable": true, "dtype": "float32"}, "name": "conv5_block2_add", "inbound_nodes": [[["conv5_block1_out", 0, 0, {}], ["conv5_block2_3_bn", 0, 0, {}]]]}, {"class_name": "Activation", "config": {"name": "conv5_block2_out", "trainable": true, "dtype": "float32", "activation": "relu"}, "name": "conv5_block2_out", "inbound_nodes": [[["conv5_block2_add", 0, 0, {}]]]}, {"class_name": "Conv2D", "config": {"name": "conv5_block3_1_conv", "trainable": true, "dtype": "float32", "filters": 512, "kernel_size": [1, 1], "strides": [1, 1], "padding": "valid", "data_format": "channels_last", "dilation_rate": [1, 1], "activation": "linear", "use_bias": true, "kernel_initializer": {"class_name": "GlorotUniform", "config": {"seed": null}}, "bias_initializer": {"class_name": "Zeros", "config": {}}, "kernel_regularizer": null, "bias_regularizer": null, "activity_regularizer": null, "kernel_constraint": null, "bias_constraint": null}, "name": "conv5_block3_1_conv", "inbound_nodes": [[["conv5_block2_out", 0, 0, {}]]]}, {"class_name": "BatchNormalization", "config": {"name": "conv5_block3_1_bn", "trainable": true, "dtype": "float32", "axis": [3], "momentum": 0.99, "epsilon": 1.001e-05, "center": true, "scale": true, "beta_initializer": {"class_name": "Zeros", "config": {}}, "gamma_initializer": {"class_name": "Ones", "config": {}}, "moving_mean_initializer": {"class_name": "Zeros", "config": {}}, "moving_variance_initializer": {"class_name": "Ones", "config": {}}, "beta_regularizer": null, "gamma_regularizer": null, "beta_constraint": null, "gamma_constraint": null}, "name": "conv5_block3_1_bn", "inbound_nodes": [[["conv5_block3_1_conv", 0, 0, {}]]]}, {"class_name": "Activation", "config": {"name": "conv5_block3_1_relu", "trainable": true, "dtype": "float32", "activation": "relu"}, "name": "conv5_block3_1_relu", "inbound_nodes": [[["conv5_block3_1_bn", 0, 0, {}]]]}, {"class_name": "Conv2D", "config": {"name": "conv5_block3_2_conv", "trainable": true, "dtype": "float32", "filters": 512, "kernel_size": [3, 3], "strides": [1, 1], "padding": "same", "data_format": "channels_last", "dilation_rate": [1, 1], "activation": "linear", "use_bias": true, "kernel_initializer": {"class_name": "GlorotUniform", "config": {"seed": null}}, "bias_initializer": {"class_name": "Zeros", "config": {}}, "kernel_regularizer": null, "bias_regularizer": null, "activity_regularizer": null, "kernel_constraint": null, "bias_constraint": null}, "name": "conv5_block3_2_conv", "inbound_nodes": [[["conv5_block3_1_relu", 0, 0, {}]]]}, {"class_name": "BatchNormalization", "config": {"name": "conv5_block3_2_bn", "trainable": true, "dtype": "float32", "axis": [3], "momentum": 0.99, "epsilon": 1.001e-05, "center": true, "scale": true, "beta_initializer": {"class_name": "Zeros", "config": {}}, "gamma_initializer": {"class_name": "Ones", "config": {}}, "moving_mean_initializer": {"class_name": "Zeros", "config": {}}, "moving_variance_initializer": {"class_name": "Ones", "config": {}}, "beta_regularizer": null, "gamma_regularizer": null, "beta_constraint": null, "gamma_constraint": null}, "name": "conv5_block3_2_bn", "inbound_nodes": [[["conv5_block3_2_conv", 0, 0, {}]]]}, {"class_name": "Activation", "config": {"name": "conv5_block3_2_relu", "trainable": true, "dtype": "float32", "activation": "relu"}, "name": "conv5_block3_2_relu", "inbound_nodes": [[["conv5_block3_2_bn", 0, 0, {}]]]}, {"class_name": "Conv2D", "config": {"name": "conv5_block3_3_conv", "trainable": true, "dtype": "float32", "filters": 2048, "kernel_size": [1, 1], "strides": [1, 1], "padding": "valid", "data_format": "channels_last", "dilation_rate": [1, 1], "activation": "linear", "use_bias": true, "kernel_initializer": {"class_name": "GlorotUniform", "config": {"seed": null}}, "bias_initializer": {"class_name": "Zeros", "config": {}}, "kernel_regularizer": null, "bias_regularizer": null, "activity_regularizer": null, "kernel_constraint": null, "bias_constraint": null}, "name": "conv5_block3_3_conv", "inbound_nodes": [[["conv5_block3_2_relu", 0, 0, {}]]]}, {"class_name": "BatchNormalization", "config": {"name": "conv5_block3_3_bn", "trainable": true, "dtype": "float32", "axis": [3], "momentum": 0.99, "epsilon": 1.001e-05, "center": true, "scale": true, "beta_initializer": {"class_name": "Zeros", "config": {}}, "gamma_initializer": {"class_name": "Ones", "config": {}}, "moving_mean_initializer": {"class_name": "Zeros", "config": {}}, "moving_variance_initializer": {"class_name": "Ones", "config": {}}, "beta_regularizer": null, "gamma_regularizer": null, "beta_constraint": null, "gamma_constraint": null}, "name": "conv5_block3_3_bn", "inbound_nodes": [[["conv5_block3_3_conv", 0, 0, {}]]]}, {"class_name": "Add", "config": {"name": "conv5_block3_add", "trainable": true, "dtype": "float32"}, "name": "conv5_block3_add", "inbound_nodes": [[["conv5_block2_out", 0, 0, {}], ["conv5_block3_3_bn", 0, 0, {}]]]}, {"class_name": "Activation", "config": {"name": "conv5_block3_out", "trainable": true, "dtype": "float32", "activation": "relu"}, "name": "conv5_block3_out", "inbound_nodes": [[["conv5_block3_add", 0, 0, {}]]]}, {"class_name": "GlobalAveragePooling2D", "config": {"name": "global_average_pooling2d", "trainable": true, "dtype": "float32", "data_format": "channels_last"}, "name": "global_average_pooling2d", "inbound_nodes": [[["conv5_block3_out", 0, 0, {}]]]}, {"class_name": "Dense", "config": {"name": "dense", "trainable": true, "dtype": "float32", "units": 128, "activation": "relu", "use_bias": true, "kernel_initializer": {"class_name": "GlorotUniform", "config": {"seed": null}}, "bias_initializer": {"class_name": "Zeros", "config": {}}, "kernel_regularizer": null, "bias_regularizer": null, "activity_regularizer": null, "kernel_constraint": null, "bias_constraint": null}, "name": "dense", "inbound_nodes": [[["global_average_pooling2d", 0, 0, {}]]]}, {"class_name": "Dropout", "config": {"name": "dropout", "trainable": true, "dtype": "float32", "rate": 0.5, "noise_shape": null, "seed": null}, "name": "dropout", "inbound_nodes": [[["dense", 0, 0, {}]]]}, {"class_name": "Dense", "config": {"name": "dense_1", "trainable": true, "dtype": "float32", "units": 64, "activation": "relu", "use_bias": true, "kernel_initializer": {"class_name": "GlorotUniform", "config": {"seed": null}}, "bias_initializer": {"class_name": "Zeros", "config": {}}, "kernel_regularizer": null, "bias_regularizer": null, "activity_regularizer": null, "kernel_constraint": null, "bias_constraint": null}, "name": "dense_1", "inbound_nodes": [[["dropout", 0, 0, {}]]]}, {"class_name": "Dropout", "config": {"name": "dropout_1", "trainable": true, "dtype": "float32", "rate": 0.25, "noise_shape": null, "seed": null}, "name": "dropout_1", "inbound_nodes": [[["dense_1", 0, 0, {}]]]}, {"class_name": "Dense", "config": {"name": "dense_2", "trainable": true, "dtype": "float32", "units": 1, "activation": "sigmoid", "use_bias": true, "kernel_initializer": {"class_name": "GlorotUniform", "config": {"seed": null}}, "bias_initializer": {"class_name": "Zeros", "config": {}}, "kernel_regularizer": null, "bias_regularizer": null, "activity_regularizer": null, "kernel_constraint": null, "bias_constraint": null}, "name": "dense_2", "inbound_nodes": [[["dropout_1", 0, 0, {}]]]}], "input_layers": [["input_1", 0, 0]], "output_layers": [["dense_2", 0, 0]]}}, "training_config": {"loss": "binary_crossentropy", "metrics": ["accuracy"], "weighted_metrics": null, "sample_weight_mode": null, "loss_weights": null, "optimizer_config": {"class_name": "Adam", "config": {"name": "Adam", "learning_rate": 9.999999747378752e-05, "decay": 0.0, "beta_1": 0.8999999761581421, "beta_2": 0.9990000128746033, "epsilon": 1e-07, "amsgrad": false}}}}, "weightsManifest": [{"paths": ["group1-shard1of1.bin"], "weights": [{"name": "conv1_bn/gamma", "shape": [64], "dtype": "float32", "quantization": {"dtype": "uint8", "min": 0.5126429200172424, "scale": 0.008454681611528583, "original_dtype": "float32"}}, {"name": "conv1_bn/beta", "shape": [64], "dtype": "float32", "quantization": {"dtype": "uint8", "min": -2.6492998179267437, "scale": 0.03532399757235658, "original_dtype": "float32"}}, {"name": "conv1_bn/moving_mean", "shape": [64], "dtype": "float32", "quantization": {"dtype": "uint8", "min": -3.5301476338330438, "scale": 0.026947691861320944, "original_dtype": "float32"}}, {"name": "conv1_bn/moving_variance", "shape": [64], "dtype": "float32", "quantization": {"dtype": "uint8", "min": 184.10784912109375, "scale": 327.1789275524663, "original_dtype": "float32"}}, {"name": "conv1_conv/kernel", "shape": [7, 7, 3, 64], "dtype": "float32", "quantization": {"dtype": "uint8", "min": -0.6687967478060255, "scale": 0.005393522159726012, "original_dtype": "float32"}}, {"name": "conv1_conv/bias", "shape": [64], "dtype": "float32", "quantization": {"dtype": "uint8", "min": -4.4504184006878035e-09, "scale": 4.7344876603061743e-11, "original_dtype": "float32"}}, {"name": "conv2_block1_0_bn/gamma", "shape": [256], "dtype": "float32", "quantization": {"dtype": "uint8", "min": 0.0043527209199965, "scale": 0.012000088939698887, "original_dtype": "float32"}}, {"name": "conv2_block1_0_bn/beta", "shape": [256], "dtype": "float32", "quantization": {"dtype": "uint8", "min": -1.1212190571953269, "scale": 0.010381657936993768, "original_dtype": "float32"}}, {"name": "conv2_block1_0_bn/moving_mean", "shape": [256], "dtype": "float32", "quantization": {"dtype": "uint8", "min": -6.6734639036889165, "scale": 0.06416792215085497, "original_dtype": "float32"}}, {"name": "conv2_block1_0_bn/moving_variance", "shape": [256], "dtype": "float32", "quantization": {"dtype": "uint8", "min": 1.1424858712416608e-06, "scale": 0.028734928213443887, "original_dtype": "float32"}}, {"name": "conv2_block1_0_conv/kernel", "shape": [1, 1, 64, 256], "dtype": "float32", "quantization": {"dtype": "uint8", "min": -0.77387040830126, "scale": 0.00655822379916322, "original_dtype": "float32"}}, {"name": "conv2_block1_0_conv/bias", "shape": [256], "dtype": "float32", "quantization": {"dtype": "uint8", "min": 0.0, "scale": 1.0, "original_dtype": "float32"}}, {"name": "conv2_block1_1_bn/gamma", "shape": [64], "dtype": "float32", "quantization": {"dtype": "uint8", "min": 0.5092175602912903, "scale": 0.006105371316274007, "original_dtype": "float32"}}, {"name": "conv2_block1_1_bn/beta", "shape": [64], "dtype": "float32", "quantization": {"dtype": "uint8", "min": -2.407364273071289, "scale": 0.023601610520306755, "original_dtype": "float32"}}, {"name": "conv2_block1_1_bn/moving_mean", "shape": [64], "dtype": "float32", "quantization": {"dtype": "uint8", "min": -4.6082068948184745, "scale": 0.04800215515435911, "original_dtype": "float32"}}, {"name": "conv2_block1_1_bn/moving_variance", "shape": [64], "dtype": "float32", "quantization": {"dtype": "uint8", "min": 0.05220366269350052, "scale": 0.03419518000354954, "original_dtype": "float32"}}, {"name": "conv2_block1_1_conv/kernel", "shape": [1, 1, 64, 64], "dtype": "float32", "quantization": {"dtype": "uint8", "min": -0.7180292168084312, "scale": 0.004351692223081401, "original_dtype": "float32"}}, {"name": "conv2_block1_1_conv/bias", "shape": [64], "dtype": "float32", "quantization": {"dtype": "uint8", "min": 0.0, "scale": 1.0, "original_dtype": "float32"}}, {"name": "conv2_block1_2_bn/gamma", "shape": [64], "dtype": "float32", "quantization": {"dtype": "uint8", "min": 0.4204263389110565, "scale": 0.008271011768602857, "original_dtype": "float32"}}, {"name": "conv2_block1_2_bn/beta", "shape": [64], "dtype": "float32", "quantization": {"dtype": "uint8", "min": -2.282603148853078, "scale": 0.032149340124691235, "original_dtype": "float32"}}, {"name": "conv2_block1_2_bn/moving_mean", "shape": [64], "dtype": "float32", "quantization": {"dtype": "uint8", "min": -4.013449042451148, "scale": 0.027489377003090055, "original_dtype": "float32"}}, {"name": "conv2_block1_2_bn/moving_variance", "shape": [64], "dtype": "float32", "quantization": {"dtype": "uint8", "min": 0.12235629558563232, "scale": 0.08373277000352448, "original_dtype": "float32"}}, {"name": "conv2_block1_2_conv/kernel", "shape": [3, 3, 64, 64], "dtype": "float32", "quantization": {"dtype": "uint8", "min": -0.39020189257229076, "scale": 0.0029560749437294756, "original_dtype": "float32"}}, {"name": "conv2_block1_2_conv/bias", "shape": [64], "dtype": "float32", "quantization": {"dtype": "uint8", "min": 0.0, "scale": 1.0, "original_dtype": "float32"}}, {"name": "conv2_block1_3_bn/gamma", "shape": [256], "dtype": "float32", "quantization": {"dtype": "uint8", "min": 0.011003042571246624, "scale": 0.011015497370823926, "original_dtype": "float32"}}, {"name": "conv2_block1_3_bn/beta", "shape": [256], "dtype": "float32", "quantization": {"dtype": "uint8", "min": -1.1212190571953269, "scale": 0.010381657936993768, "original_dtype": "float32"}}, {"name": "conv2_block1_3_bn/moving_mean", "shape": [256], "dtype": "float32", "quantization": {"dtype": "uint8", "min": -2.005644028794532, "scale": 0.015080030291688208, "original_dtype": "float32"}}, {"name": "conv2_block1_3_bn/moving_variance", "shape": [256], "dtype": "float32", "quantization": {"dtype": "uint8", "min": 8.595875442551915e-07, "scale": 0.008380246063894875, "original_dtype": "float32"}}, {"name": "conv2_block1_3_conv/kernel", "shape": [1, 1, 64, 256], "dtype": "float32", "quantization": {"dtype": "uint8", "min": -0.3973526954650879, "scale": 0.002921710996066823, "original_dtype": "float32"}}, {"name": "conv2_block1_3_conv/bias", "shape": [256], "dtype": "float32", "quantization": {"dtype": "uint8", "min": 0.0, "scale": 1.0, "original_dtype": "float32"}}, {"name": "conv2_block2_1_bn/gamma", "shape": [64], "dtype": "float32", "quantization": {"dtype": "uint8", "min": 0.7461968660354614, "scale": 0.004716993313209683, "original_dtype": "float32"}}, {"name": "conv2_block2_1_bn/beta", "shape": [64], "dtype": "float32", "quantization": {"dtype": "uint8", "min": -1.6905940897324507, "scale": 0.012807530982821596, "original_dtype": "float32"}}, {"name": "conv2_block2_1_bn/moving_mean", "shape": [64], "dtype": "float32", "quantization": {"dtype": "uint8", "min": -2.515720709632425, "scale": 0.014213111353855508, "original_dtype": "float32"}}, {"name": "conv2_block2_1_bn/moving_variance", "shape": [64], "dtype": "float32", "quantization": {"dtype": "uint8", "min": 0.22886011004447937, "scale": 0.007600936819525326, "original_dtype": "float32"}}, {"name": "conv2_block2_1_conv/kernel", "shape": [1, 1, 256, 64], "dtype": "float32", "quantization": {"dtype": "uint8", "min": -0.2961263588830536, "scale": 0.00202826273207571, "original_dtype": "float32"}}, {"name": "conv2_block2_1_conv/bias", "shape": [64], "dtype": "float32", "quantization": {"dtype": "uint8", "min": 0.0, "scale": 1.0, "original_dtype": "float32"}}, {"name": "conv2_block2_2_bn/gamma", "shape": [64], "dtype": "float32", "quantization": {"dtype": "uint8", "min": 0.6205095648765564, "scale": 0.003910624980926513, "original_dtype": "float32"}}, {"name": "conv2_block2_2_bn/beta", "shape": [64], "dtype": "float32", "quantization": {"dtype": "uint8", "min": -2.002034819359873, "scale": 0.01725892085655063, "original_dtype": "float32"}}, {"name": "conv2_block2_2_bn/moving_mean", "shape": [64], "dtype": "float32", "quantization": {"dtype": "uint8", "min": -1.3406322282903333, "scale": 0.008937548188602222, "original_dtype": "float32"}}, {"name": "conv2_block2_2_bn/moving_variance", "shape": [64], "dtype": "float32", "quantization": {"dtype": "uint8", "min": 0.16632837057113647, "scale": 0.003731702122033811, "original_dtype": "float32"}}, {"name": "conv2_block2_2_conv/kernel", "shape": [3, 3, 64, 64], "dtype": "float32", "quantization": {"dtype": "uint8", "min": -0.24088432800536064, "scale": 0.0021898575273214603, "original_dtype": "float32"}}, {"name": "conv2_block2_2_conv/bias", "shape": [64], "dtype": "float32", "quantization": {"dtype": "uint8", "min": 0.0, "scale": 1.0, "original_dtype": "float32"}}, {"name": "conv2_block2_3_bn/gamma", "shape": [256], "dtype": "float32", "quantization": {"dtype": "uint8", "min": -0.01683870656233208, "scale": 0.00841935328116604, "original_dtype": "float32"}}, {"name": "conv2_block2_3_bn/beta", "shape": [256], "dtype": "float32", "quantization": {"dtype": "uint8", "min": -1.7073775693482043, "scale": 0.011775017719642789, "original_dtype": "float32"}}, {"name": "conv2_block2_3_bn/moving_mean", "shape": [256], "dtype": "float32", "quantization": {"dtype": "uint8", "min": -1.086528488935209, "scale": 0.008169387134851195, "original_dtype": "float32"}}, {"name": "conv2_block2_3_bn/moving_variance", "shape": [256], "dtype": "float32", "quantization": {"dtype": "uint8", "min": 0.0003367012832313776, "scale": 0.0006959895502921998, "original_dtype": "float32"}}, {"name": "conv2_block2_3_conv/kernel", "shape": [1, 1, 64, 256], "dtype": "float32", "quantization": {"dtype": "uint8", "min": -0.24054243517856974, "scale": 0.0020384952133777096, "original_dtype": "float32"}}, {"name": "conv2_block2_3_conv/bias", "shape": [256], "dtype": "float32", "quantization": {"dtype": "uint8", "min": 0.0, "scale": 1.0, "original_dtype": "float32"}}, {"name": "conv2_block3_1_bn/gamma", "shape": [64], "dtype": "float32", "quantization": {"dtype": "uint8", "min": 0.5740686058998108, "scale": 0.004368531236461565, "original_dtype": "float32"}}, {"name": "conv2_block3_1_bn/beta", "shape": [64], "dtype": "float32", "quantization": {"dtype": "uint8", "min": -1.8731157200009216, "scale": 0.011634259130440507, "original_dtype": "float32"}}, {"name": "conv2_block3_1_bn/moving_mean", "shape": [64], "dtype": "float32", "quantization": {"dtype": "uint8", "min": -1.9946179759268665, "scale": 0.014349769610984652, "original_dtype": "float32"}}, {"name": "conv2_block3_1_bn/moving_variance", "shape": [64], "dtype": "float32", "quantization": {"dtype": "uint8", "min": 2.1013129298808053e-06, "scale": 0.009826357398738836, "original_dtype": "float32"}}, {"name": "conv2_block3_1_conv/kernel", "shape": [1, 1, 256, 64], "dtype": "float32", "quantization": {"dtype": "uint8", "min": -0.20988630553086599, "scale": 0.001857400933901469, "original_dtype": "float32"}}, {"name": "conv2_block3_1_conv/bias", "shape": [64], "dtype": "float32", "quantization": {"dtype": "uint8", "min": 0.0, "scale": 1.0, "original_dtype": "float32"}}, {"name": "conv2_block3_2_bn/gamma", "shape": [64], "dtype": "float32", "quantization": {"dtype": "uint8", "min": 0.7570450901985168, "scale": 0.0034989546327029958, "original_dtype": "float32"}}, {"name": "conv2_block3_2_bn/beta", "shape": [64], "dtype": "float32", "quantization": {"dtype": "uint8", "min": -2.2182499548968146, "scale": 0.016074275035484163, "original_dtype": "float32"}}, {"name": "conv2_block3_2_bn/moving_mean", "shape": [64], "dtype": "float32", "quantization": {"dtype": "uint8", "min": -1.3440699354106305, "scale": 0.006369999693889244, "original_dtype": "float32"}}, {"name": "conv2_block3_2_bn/moving_variance", "shape": [64], "dtype": "float32", "quantization": {"dtype": "uint8", "min": 0.1354680061340332, "scale": 0.002801717028898351, "original_dtype": "float32"}}, {"name": "conv2_block3_2_conv/kernel", "shape": [3, 3, 64, 64], "dtype": "float32", "quantization": {"dtype": "uint8", "min": -0.21868653116272943, "scale": 0.001644259632802477, "original_dtype": "float32"}}, {"name": "conv2_block3_2_conv/bias", "shape": [64], "dtype": "float32", "quantization": {"dtype": "uint8", "min": 0.0, "scale": 1.0, "original_dtype": "float32"}}, {"name": "conv2_block3_3_bn/gamma", "shape": [256], "dtype": "float32", "quantization": {"dtype": "uint8", "min": -0.060734340373207546, "scale": 0.008676334339029649, "original_dtype": "float32"}}, {"name": "conv2_block3_3_bn/beta", "shape": [256], "dtype": "float32", "quantization": {"dtype": "uint8", "min": -1.5705417647081263, "scale": 0.012174742362078498, "original_dtype": "float32"}}, {"name": "conv2_block3_3_bn/moving_mean", "shape": [256], "dtype": "float32", "quantization": {"dtype": "uint8", "min": -1.087880879757451, "scale": 0.008304434196621763, "original_dtype": "float32"}}, {"name": "conv2_block3_3_bn/moving_variance", "shape": [256], "dtype": "float32", "quantization": {"dtype": "uint8", "min": 0.0005230105016380548, "scale": 0.0012333919814623453, "original_dtype": "float32"}}, {"name": "conv2_block3_3_conv/kernel", "shape": [1, 1, 64, 256], "dtype": "float32", "quantization": {"dtype": "uint8", "min": -0.2745988920623181, "scale": 0.002451775821984983, "original_dtype": "float32"}}, {"name": "conv2_block3_3_conv/bias", "shape": [256], "dtype": "float32", "quantization": {"dtype": "uint8", "min": 0.0, "scale": 1.0, "original_dtype": "float32"}}, {"name": "conv3_block1_0_bn/gamma", "shape": [512], "dtype": "float32", "quantization": {"dtype": "uint8", "min": 0.005530852824449539, "scale": 0.009985768488224816, "original_dtype": "float32"}}, {"name": "conv3_block1_0_bn/beta", "shape": [512], "dtype": "float32", "quantization": {"dtype": "uint8", "min": -1.5489482122309068, "scale": 0.010985448313694374, "original_dtype": "float32"}}, {"name": "conv3_block1_0_bn/moving_mean", "shape": [512], "dtype": "float32", "quantization": {"dtype": "uint8", "min": -2.3862001419067385, "scale": 0.020052102032829734, "original_dtype": "float32"}}, {"name": "conv3_block1_0_bn/moving_variance", "shape": [512], "dtype": "float32", "quantization": {"dtype": "uint8", "min": 0.0026763337664306164, "scale": 0.01592315098124684, "original_dtype": "float32"}}, {"name": "conv3_block1_0_conv/kernel", "shape": [1, 1, 256, 512], "dtype": "float32", "quantization": {"dtype": "uint8", "min": -0.46511780082010756, "scale": 0.0043468953347673605, "original_dtype": "float32"}}, {"name": "conv3_block1_0_conv/bias", "shape": [512], "dtype": "float32", "quantization": {"dtype": "uint8", "min": 0.0, "scale": 1.0, "original_dtype": "float32"}}, {"name": "conv3_block1_1_bn/gamma", "shape": [128], "dtype": "float32", "quantization": {"dtype": "uint8", "min": 0.6103370785713196, "scale": 0.004047261266147389, "original_dtype": "float32"}}, {"name": "conv3_block1_1_bn/beta", "shape": [128], "dtype": "float32", "quantization": {"dtype": "uint8", "min": -1.5792655954173966, "scale": 0.011874177409153358, "original_dtype": "float32"}}, {"name": "conv3_block1_1_bn/moving_mean", "shape": [128], "dtype": "float32", "quantization": {"dtype": "uint8", "min": -2.9416965933407053, "scale": 0.018158620946547563, "original_dtype": "float32"}}, {"name": "conv3_block1_1_bn/moving_variance", "shape": [128], "dtype": "float32", "quantization": {"dtype": "uint8", "min": 0.17527830600738525, "scale": 0.009377583802915087, "original_dtype": "float32"}}, {"name": "conv3_block1_1_conv/kernel", "shape": [1, 1, 256, 128], "dtype": "float32", "quantization": {"dtype": "uint8", "min": -0.33330287676231535, "scale": 0.0024873349012113086, "original_dtype": "float32"}}, {"name": "conv3_block1_1_conv/bias", "shape": [128], "dtype": "float32", "quantization": {"dtype": "uint8", "min": 0.0, "scale": 1.0, "original_dtype": "float32"}}, {"name": "conv3_block1_2_bn/gamma", "shape": [128], "dtype": "float32", "quantization": {"dtype": "uint8", "min": 0.6048915386199951, "scale": 0.003987195445042031, "original_dtype": "float32"}}, {"name": "conv3_block1_2_bn/beta", "shape": [128], "dtype": "float32", "quantization": {"dtype": "uint8", "min": -2.762347507476807, "scale": 0.01770735581715902, "original_dtype": "float32"}}, {"name": "conv3_block1_2_bn/moving_mean", "shape": [128], "dtype": "float32", "quantization": {"dtype": "uint8", "min": -4.103226992663215, "scale": 0.023855970887576832, "original_dtype": "float32"}}, {"name": "conv3_block1_2_bn/moving_variance", "shape": [128], "dtype": "float32", "quantization": {"dtype": "uint8", "min": 0.23013627529144287, "scale": 0.0075141500024234545, "original_dtype": "float32"}}, {"name": "conv3_block1_2_conv/kernel", "shape": [3, 3, 128, 128], "dtype": "float32", "quantization": {"dtype": "uint8", "min": -0.38465686826144946, "scale": 0.0029818361880732517, "original_dtype": "float32"}}, {"name": "conv3_block1_2_conv/bias", "shape": [128], "dtype": "float32", "quantization": {"dtype": "uint8", "min": 0.0, "scale": 1.0, "original_dtype": "float32"}}, {"name": "conv3_block1_3_bn/gamma", "shape": [512], "dtype": "float32", "quantization": {"dtype": "uint8", "min": -0.010732674043552548, "scale": 0.010732674043552548, "original_dtype": "float32"}}, {"name": "conv3_block1_3_bn/beta", "shape": [512], "dtype": "float32", "quantization": {"dtype": "uint8", "min": -1.5489482122309068, "scale": 0.010985448313694374, "original_dtype": "float32"}}, {"name": "conv3_block1_3_bn/moving_mean", "shape": [512], "dtype": "float32", "quantization": {"dtype": "uint8", "min": -1.0709070808747234, "scale": 0.008432339219486011, "original_dtype": "float32"}}, {"name": "conv3_block1_3_bn/moving_variance", "shape": [512], "dtype": "float32", "quantization": {"dtype": "uint8", "min": 0.000684088678099215, "scale": 0.001741085191914702, "original_dtype": "float32"}}, {"name": "conv3_block1_3_conv/kernel", "shape": [1, 1, 128, 512], "dtype": "float32", "quantization": {"dtype": "uint8", "min": -0.37399131994621426, "scale": 0.0031694179656458835, "original_dtype": "float32"}}, {"name": "conv3_block1_3_conv/bias", "shape": [512], "dtype": "float32", "quantization": {"dtype": "uint8", "min": 0.0, "scale": 1.0, "original_dtype": "float32"}}, {"name": "conv3_block2_1_bn/gamma", "shape": [128], "dtype": "float32", "quantization": {"dtype": "uint8", "min": 0.5784836411476135, "scale": 0.003334476667291978, "original_dtype": "float32"}}, {"name": "conv3_block2_1_bn/beta", "shape": [128], "dtype": "float32", "quantization": {"dtype": "uint8", "min": -4.356083624503192, "scale": 0.01936037166445863, "original_dtype": "float32"}}, {"name": "conv3_block2_1_bn/moving_mean", "shape": [128], "dtype": "float32", "quantization": {"dtype": "uint8", "min": -2.0983867205825506, "scale": 0.01362588779599059, "original_dtype": "float32"}}, {"name": "conv3_block2_1_bn/moving_variance", "shape": [128], "dtype": "float32", "quantization": {"dtype": "uint8", "min": 4.261433787178248e-06, "scale": 0.009396902838175175, "original_dtype": "float32"}}, {"name": "conv3_block2_1_conv/kernel", "shape": [1, 1, 512, 128], "dtype": "float32", "quantization": {"dtype": "uint8", "min": -0.1621956367118686, "scale": 0.0013982382475161085, "original_dtype": "float32"}}, {"name": "conv3_block2_1_conv/bias", "shape": [128], "dtype": "float32", "quantization": {"dtype": "uint8", "min": 0.0, "scale": 1.0, "original_dtype": "float32"}}, {"name": "conv3_block2_2_bn/gamma", "shape": [128], "dtype": "float32", "quantization": {"dtype": "uint8", "min": 0.5107861161231995, "scale": 0.005032846740647859, "original_dtype": "float32"}}, {"name": "conv3_block2_2_bn/beta", "shape": [128], "dtype": "float32", "quantization": {"dtype": "uint8", "min": -3.8310447145910826, "scale": 0.020270077854979272, "original_dtype": "float32"}}, {"name": "conv3_block2_2_bn/moving_mean", "shape": [128], "dtype": "float32", "quantization": {"dtype": "uint8", "min": -1.4234880466087192, "scale": 0.009954461864396637, "original_dtype": "float32"}}, {"name": "conv3_block2_2_bn/moving_variance", "shape": [128], "dtype": "float32", "quantization": {"dtype": "uint8", "min": 0.17664289474487305, "scale": 0.0022617978208205277, "original_dtype": "float32"}}, {"name": "conv3_block2_2_conv/kernel", "shape": [3, 3, 128, 128], "dtype": "float32", "quantization": {"dtype": "uint8", "min": -0.17586838667299232, "scale": 0.001384790446244034, "original_dtype": "float32"}}, {"name": "conv3_block2_2_conv/bias", "shape": [128], "dtype": "float32", "quantization": {"dtype": "uint8", "min": 0.0, "scale": 1.0, "original_dtype": "float32"}}, {"name": "conv3_block2_3_bn/gamma", "shape": [512], "dtype": "float32", "quantization": {"dtype": "uint8", "min": -0.06883143630682254, "scale": 0.008603929538352817, "original_dtype": "float32"}}, {"name": "conv3_block2_3_bn/beta", "shape": [512], "dtype": "float32", "quantization": {"dtype": "uint8", "min": -1.5066896102007699, "scale": 0.010463122293060902, "original_dtype": "float32"}}, {"name": "conv3_block2_3_bn/moving_mean", "shape": [512], "dtype": "float32", "quantization": {"dtype": "uint8", "min": -0.625652100058163, "scale": 0.004344806250403909, "original_dtype": "float32"}}, {"name": "conv3_block2_3_bn/moving_variance", "shape": [512], "dtype": "float32", "quantization": {"dtype": "uint8", "min": 0.00038828252581879497, "scale": 0.0006010980466289409, "original_dtype": "float32"}}, {"name": "conv3_block2_3_conv/kernel", "shape": [1, 1, 128, 512], "dtype": "float32", "quantization": {"dtype": "uint8", "min": -0.34401741694001586, "scale": 0.0026668016817055495, "original_dtype": "float32"}}, {"name": "conv3_block2_3_conv/bias", "shape": [512], "dtype": "float32", "quantization": {"dtype": "uint8", "min": 0.0, "scale": 1.0, "original_dtype": "float32"}}, {"name": "conv3_block3_1_bn/gamma", "shape": [128], "dtype": "float32", "quantization": {"dtype": "uint8", "min": 0.40599995851516724, "scale": 0.005057214989381678, "original_dtype": "float32"}}, {"name": "conv3_block3_1_bn/beta", "shape": [128], "dtype": "float32", "quantization": {"dtype": "uint8", "min": -2.693256499720555, "scale": 0.018197679052165912, "original_dtype": "float32"}}, {"name": "conv3_block3_1_bn/moving_mean", "shape": [128], "dtype": "float32", "quantization": {"dtype": "uint8", "min": -1.8729887948316688, "scale": 0.013283608473983466, "original_dtype": "float32"}}, {"name": "conv3_block3_1_bn/moving_variance", "shape": [128], "dtype": "float32", "quantization": {"dtype": "uint8", "min": 0.18360655009746552, "scale": 0.044506191097053824, "original_dtype": "float32"}}, {"name": "conv3_block3_1_conv/kernel", "shape": [1, 1, 512, 128], "dtype": "float32", "quantization": {"dtype": "uint8", "min": -0.32860081336077523, "scale": 0.0027383401113397934, "original_dtype": "float32"}}, {"name": "conv3_block3_1_conv/bias", "shape": [128], "dtype": "float32", "quantization": {"dtype": "uint8", "min": 0.0, "scale": 1.0, "original_dtype": "float32"}}, {"name": "conv3_block3_2_bn/gamma", "shape": [128], "dtype": "float32", "quantization": {"dtype": "uint8", "min": 0.46005693078041077, "scale": 0.0067400889069426295, "original_dtype": "float32"}}, {"name": "conv3_block3_2_bn/beta", "shape": [128], "dtype": "float32", "quantization": {"dtype": "uint8", "min": -1.5868688835817226, "scale": 0.008531553137536143, "original_dtype": "float32"}}, {"name": "conv3_block3_2_bn/moving_mean", "shape": [128], "dtype": "float32", "quantization": {"dtype": "uint8", "min": -1.4762281011132634, "scale": 0.012617334197549259, "original_dtype": "float32"}}, {"name": "conv3_block3_2_bn/moving_variance", "shape": [128], "dtype": "float32", "quantization": {"dtype": "uint8", "min": 0.08016139268875122, "scale": 0.0070762005506777295, "original_dtype": "float32"}}, {"name": "conv3_block3_2_conv/kernel", "shape": [3, 3, 128, 128], "dtype": "float32", "quantization": {"dtype": "uint8", "min": -0.3264228582382202, "scale": 0.0027430492288926067, "original_dtype": "float32"}}, {"name": "conv3_block3_2_conv/bias", "shape": [128], "dtype": "float32", "quantization": {"dtype": "uint8", "min": 0.0, "scale": 1.0, "original_dtype": "float32"}}, {"name": "conv3_block3_3_bn/gamma", "shape": [512], "dtype": "float32", "quantization": {"dtype": "uint8", "min": -0.0, "scale": 0.011953397232162603, "original_dtype": "float32"}}, {"name": "conv3_block3_3_bn/beta", "shape": [512], "dtype": "float32", "quantization": {"dtype": "uint8", "min": -2.3679071010327806, "scale": 0.011013521400152469, "original_dtype": "float32"}}, {"name": "conv3_block3_3_bn/moving_mean", "shape": [512], "dtype": "float32", "quantization": {"dtype": "uint8", "min": -0.521700945554995, "scale": 0.004013084196576885, "original_dtype": "float32"}}, {"name": "conv3_block3_3_bn/moving_variance", "shape": [512], "dtype": "float32", "quantization": {"dtype": "uint8", "min": 0.00010034152364823967, "scale": 0.0008596383587014405, "original_dtype": "float32"}}, {"name": "conv3_block3_3_conv/kernel", "shape": [1, 1, 128, 512], "dtype": "float32", "quantization": {"dtype": "uint8", "min": -0.28726865508977106, "scale": 0.0020373663481544047, "original_dtype": "float32"}}, {"name": "conv3_block3_3_conv/bias", "shape": [512], "dtype": "float32", "quantization": {"dtype": "uint8", "min": 0.0, "scale": 1.0, "original_dtype": "float32"}}, {"name": "conv3_block4_1_bn/gamma", "shape": [128], "dtype": "float32", "quantization": {"dtype": "uint8", "min": 0.7355023622512817, "scale": 0.006505683356640386, "original_dtype": "float32"}}, {"name": "conv3_block4_1_bn/beta", "shape": [128], "dtype": "float32", "quantization": {"dtype": "uint8", "min": -2.6395202300127814, "scale": 0.013330910252589805, "original_dtype": "float32"}}, {"name": "conv3_block4_1_bn/moving_mean", "shape": [128], "dtype": "float32", "quantization": {"dtype": "uint8", "min": -1.5174549962960038, "scale": 0.01107631384157667, "original_dtype": "float32"}}, {"name": "conv3_block4_1_bn/moving_variance", "shape": [128], "dtype": "float32", "quantization": {"dtype": "uint8", "min": 0.3949695825576782, "scale": 0.008236408701129988, "original_dtype": "float32"}}, {"name": "conv3_block4_1_conv/kernel", "shape": [1, 1, 512, 128], "dtype": "float32", "quantization": {"dtype": "uint8", "min": -0.29790731855467256, "scale": 0.002524638292836208, "original_dtype": "float32"}}, {"name": "conv3_block4_1_conv/bias", "shape": [128], "dtype": "float32", "quantization": {"dtype": "uint8", "min": 0.0, "scale": 1.0, "original_dtype": "float32"}}, {"name": "conv3_block4_2_bn/gamma", "shape": [128], "dtype": "float32", "quantization": {"dtype": "uint8", "min": 0.6816897988319397, "scale": 0.003971695666219674, "original_dtype": "float32"}}, {"name": "conv3_block4_2_bn/beta", "shape": [128], "dtype": "float32", "quantization": {"dtype": "uint8", "min": -1.3599304549834308, "scale": 0.011623337222080605, "original_dtype": "float32"}}, {"name": "conv3_block4_2_bn/moving_mean", "shape": [128], "dtype": "float32", "quantization": {"dtype": "uint8", "min": -1.3801050298354205, "scale": 0.011795769485772824, "original_dtype": "float32"}}, {"name": "conv3_block4_2_bn/moving_variance", "shape": [128], "dtype": "float32", "quantization": {"dtype": "uint8", "min": 0.2500532567501068, "scale": 0.004850879954356773, "original_dtype": "float32"}}, {"name": "conv3_block4_2_conv/kernel", "shape": [3, 3, 128, 128], "dtype": "float32", "quantization": {"dtype": "uint8", "min": -0.2713765256545123, "scale": 0.0018845592059341131, "original_dtype": "float32"}}, {"name": "conv3_block4_2_conv/bias", "shape": [128], "dtype": "float32", "quantization": {"dtype": "uint8", "min": 0.0, "scale": 1.0, "original_dtype": "float32"}}, {"name": "conv3_block4_3_bn/gamma", "shape": [512], "dtype": "float32", "quantization": {"dtype": "uint8", "min": -0.006783438762467281, "scale": 0.006783438762467281, "original_dtype": "float32"}}, {"name": "conv3_block4_3_bn/beta", "shape": [512], "dtype": "float32", "quantization": {"dtype": "uint8", "min": -1.8958592868318744, "scale": 0.012075536858801748, "original_dtype": "float32"}}, {"name": "conv3_block4_3_bn/moving_mean", "shape": [512], "dtype": "float32", "quantization": {"dtype": "uint8", "min": -0.9014393289883932, "scale": 0.007575120411667169, "original_dtype": "float32"}}, {"name": "conv3_block4_3_bn/moving_variance", "shape": [512], "dtype": "float32", "quantization": {"dtype": "uint8", "min": 0.00021288255811668932, "scale": 0.0009332763034549049, "original_dtype": "float32"}}, {"name": "conv3_block4_3_conv/kernel", "shape": [1, 1, 128, 512], "dtype": "float32", "quantization": {"dtype": "uint8", "min": -0.2785805427560619, "scale": 0.002193547580756393, "original_dtype": "float32"}}, {"name": "conv3_block4_3_conv/bias", "shape": [512], "dtype": "float32", "quantization": {"dtype": "uint8", "min": 0.0, "scale": 1.0, "original_dtype": "float32"}}, {"name": "conv4_block1_0_bn/gamma", "shape": [1024], "dtype": "float32", "quantization": {"dtype": "uint8", "min": 0.033979933708906174, "scale": 0.010765537400456035, "original_dtype": "float32"}}, {"name": "conv4_block1_0_bn/beta", "shape": [1024], "dtype": "float32", "quantization": {"dtype": "uint8", "min": -0.9375835227031333, "scale": 0.007157126127504835, "original_dtype": "float32"}}, {"name": "conv4_block1_0_bn/moving_mean", "shape": [1024], "dtype": "float32", "quantization": {"dtype": "uint8", "min": -1.9995872030071182, "scale": 0.016390059041041953, "original_dtype": "float32"}}, {"name": "conv4_block1_0_bn/moving_variance", "shape": [1024], "dtype": "float32", "quantization": {"dtype": "uint8", "min": 0.015027696266770363, "scale": 0.01128271820352358, "original_dtype": "float32"}}, {"name": "conv4_block1_0_conv/kernel", "shape": [1, 1, 512, 1024], "dtype": "float32", "quantization": {"dtype": "uint8", "min": -0.3338259303102306, "scale": 0.002954211772656908, "original_dtype": "float32"}}, {"name": "conv4_block1_0_conv/bias", "shape": [1024], "dtype": "float32", "quantization": {"dtype": "uint8", "min": 0.0, "scale": 1.0, "original_dtype": "float32"}}, {"name": "conv4_block1_1_bn/gamma", "shape": [256], "dtype": "float32", "quantization": {"dtype": "uint8", "min": 0.6213442087173462, "scale": 0.003980505232717477, "original_dtype": "float32"}}, {"name": "conv4_block1_1_bn/beta", "shape": [256], "dtype": "float32", "quantization": {"dtype": "uint8", "min": -1.4199508580507016, "scale": 0.009160973277746462, "original_dtype": "float32"}}, {"name": "conv4_block1_1_bn/moving_mean", "shape": [256], "dtype": "float32", "quantization": {"dtype": "uint8", "min": -1.7981004051133698, "scale": 0.012315756199406643, "original_dtype": "float32"}}, {"name": "conv4_block1_1_bn/moving_variance", "shape": [256], "dtype": "float32", "quantization": {"dtype": "uint8", "min": 0.40585967898368835, "scale": 0.008409963986452888, "original_dtype": "float32"}}, {"name": "conv4_block1_1_conv/kernel", "shape": [1, 1, 512, 256], "dtype": "float32", "quantization": {"dtype": "uint8", "min": -0.2305711217955047, "scale": 0.0022385545805388807, "original_dtype": "float32"}}, {"name": "conv4_block1_1_conv/bias", "shape": [256], "dtype": "float32", "quantization": {"dtype": "uint8", "min": 0.0, "scale": 1.0, "original_dtype": "float32"}}, {"name": "conv4_block1_2_bn/gamma", "shape": [256], "dtype": "float32", "quantization": {"dtype": "uint8", "min": 0.5854782462120056, "scale": 0.0045634833036684525, "original_dtype": "float32"}}, {"name": "conv4_block1_2_bn/beta", "shape": [256], "dtype": "float32", "quantization": {"dtype": "uint8", "min": -1.8394469747356341, "scale": 0.012685841205073338, "original_dtype": "float32"}}, {"name": "conv4_block1_2_bn/moving_mean", "shape": [256], "dtype": "float32", "quantization": {"dtype": "uint8", "min": -4.137841998829561, "scale": 0.031347287869920915, "original_dtype": "float32"}}, {"name": "conv4_block1_2_bn/moving_variance", "shape": [256], "dtype": "float32", "quantization": {"dtype": "uint8", "min": 0.34219133853912354, "scale": 0.01904629492292217, "original_dtype": "float32"}}, {"name": "conv4_block1_2_conv/kernel", "shape": [3, 3, 256, 256], "dtype": "float32", "quantization": {"dtype": "uint8", "min": -0.2679999679327011, "scale": 0.0017516337773379157, "original_dtype": "float32"}}, {"name": "conv4_block1_2_conv/bias", "shape": [256], "dtype": "float32", "quantization": {"dtype": "uint8", "min": 0.0, "scale": 1.0, "original_dtype": "float32"}}, {"name": "conv4_block1_3_bn/gamma", "shape": [1024], "dtype": "float32", "quantization": {"dtype": "uint8", "min": 0.07113350182771683, "scale": 0.009002757043230768, "original_dtype": "float32"}}, {"name": "conv4_block1_3_bn/beta", "shape": [1024], "dtype": "float32", "quantization": {"dtype": "uint8", "min": -0.9375835227031333, "scale": 0.007157126127504835, "original_dtype": "float32"}}, {"name": "conv4_block1_3_bn/moving_mean", "shape": [1024], "dtype": "float32", "quantization": {"dtype": "uint8", "min": -0.7359124983058256, "scale": 0.004906083322038838, "original_dtype": "float32"}}, {"name": "conv4_block1_3_bn/moving_variance", "shape": [1024], "dtype": "float32", "quantization": {"dtype": "uint8", "min": 0.005249861162155867, "scale": 0.001388090251780608, "original_dtype": "float32"}}, {"name": "conv4_block1_3_conv/kernel", "shape": [1, 1, 256, 1024], "dtype": "float32", "quantization": {"dtype": "uint8", "min": -0.33173804002649643, "scale": 0.0028113393222584443, "original_dtype": "float32"}}, {"name": "conv4_block1_3_conv/bias", "shape": [1024], "dtype": "float32", "quantization": {"dtype": "uint8", "min": 0.0, "scale": 1.0, "original_dtype": "float32"}}, {"name": "conv4_block2_1_bn/gamma", "shape": [256], "dtype": "float32", "quantization": {"dtype": "uint8", "min": 0.5655062198638916, "scale": 0.004619026184082031, "original_dtype": "float32"}}, {"name": "conv4_block2_1_bn/beta", "shape": [256], "dtype": "float32", "quantization": {"dtype": "uint8", "min": -2.702526631074793, "scale": 0.014687644734102136, "original_dtype": "float32"}}, {"name": "conv4_block2_1_bn/moving_mean", "shape": [256], "dtype": "float32", "quantization": {"dtype": "uint8", "min": -5.852475035424326, "scale": 0.03163500019148284, "original_dtype": "float32"}}, {"name": "conv4_block2_1_bn/moving_variance", "shape": [256], "dtype": "float32", "quantization": {"dtype": "uint8", "min": 0.36715057492256165, "scale": 0.015014005992926804, "original_dtype": "float32"}}, {"name": "conv4_block2_1_conv/kernel", "shape": [1, 1, 1024, 256], "dtype": "float32", "quantization": {"dtype": "uint8", "min": -0.19673811828388887, "scale": 0.0016960182610680076, "original_dtype": "float32"}}, {"name": "conv4_block2_1_conv/bias", "shape": [256], "dtype": "float32", "quantization": {"dtype": "uint8", "min": 0.0, "scale": 1.0, "original_dtype": "float32"}}, {"name": "conv4_block2_2_bn/gamma", "shape": [256], "dtype": "float32", "quantization": {"dtype": "uint8", "min": 0.5147577524185181, "scale": 0.00700385570526123, "original_dtype": "float32"}}, {"name": "conv4_block2_2_bn/beta", "shape": [256], "dtype": "float32", "quantization": {"dtype": "uint8", "min": -2.556510229671703, "scale": 0.017273717768052047, "original_dtype": "float32"}}, {"name": "conv4_block2_2_bn/moving_mean", "shape": [256], "dtype": "float32", "quantization": {"dtype": "uint8", "min": -2.377994551378138, "scale": 0.014070973676793715, "original_dtype": "float32"}}, {"name": "conv4_block2_2_bn/moving_variance", "shape": [256], "dtype": "float32", "quantization": {"dtype": "uint8", "min": 0.10513381659984589, "scale": 0.00478037087356343, "original_dtype": "float32"}}, {"name": "conv4_block2_2_conv/kernel", "shape": [3, 3, 256, 256], "dtype": "float32", "quantization": {"dtype": "uint8", "min": -0.4365821726181928, "scale": 0.002480580526239732, "original_dtype": "float32"}}, {"name": "conv4_block2_2_conv/bias", "shape": [256], "dtype": "float32", "quantization": {"dtype": "uint8", "min": 0.0, "scale": 1.0, "original_dtype": "float32"}}, {"name": "conv4_block2_3_bn/gamma", "shape": [1024], "dtype": "float32", "quantization": {"dtype": "uint8", "min": 0.05497802793979645, "scale": 0.007403893973313126, "original_dtype": "float32"}}, {"name": "conv4_block2_3_bn/beta", "shape": [1024], "dtype": "float32", "quantization": {"dtype": "uint8", "min": -1.6495784834319471, "scale": 0.010440370148303462, "original_dtype": "float32"}}, {"name": "conv4_block2_3_bn/moving_mean", "shape": [1024], "dtype": "float32", "quantization": {"dtype": "uint8", "min": -0.431716503349005, "scale": 0.0029569623517055137, "original_dtype": "float32"}}, {"name": "conv4_block2_3_bn/moving_variance", "shape": [1024], "dtype": "float32", "quantization": {"dtype": "uint8", "min": 0.0014270668616518378, "scale": 0.0004776426193797413, "original_dtype": "float32"}}, {"name": "conv4_block2_3_conv/kernel", "shape": [1, 1, 256, 1024], "dtype": "float32", "quantization": {"dtype": "uint8", "min": -0.43677064297246, "scale": 0.002873491072187237, "original_dtype": "float32"}}, {"name": "conv4_block2_3_conv/bias", "shape": [1024], "dtype": "float32", "quantization": {"dtype": "uint8", "min": 0.0, "scale": 1.0, "original_dtype": "float32"}}, {"name": "conv4_block3_1_bn/gamma", "shape": [256], "dtype": "float32", "quantization": {"dtype": "uint8", "min": 0.4627031981945038, "scale": 0.005580297287772684, "original_dtype": "float32"}}, {"name": "conv4_block3_1_bn/beta", "shape": [256], "dtype": "float32", "quantization": {"dtype": "uint8", "min": -2.399995290999319, "scale": 0.011320732504713769, "original_dtype": "float32"}}, {"name": "conv4_block3_1_bn/moving_mean", "shape": [256], "dtype": "float32", "quantization": {"dtype": "uint8", "min": -2.171348979893853, "scale": 0.013656282892414167, "original_dtype": "float32"}}, {"name": "conv4_block3_1_bn/moving_variance", "shape": [256], "dtype": "float32", "quantization": {"dtype": "uint8", "min": 0.31561028957366943, "scale": 0.013274288644977645, "original_dtype": "float32"}}, {"name": "conv4_block3_1_conv/kernel", "shape": [1, 1, 1024, 256], "dtype": "float32", "quantization": {"dtype": "uint8", "min": -0.3862690766652425, "scale": 0.002840213799009136, "original_dtype": "float32"}}, {"name": "conv4_block3_1_conv/bias", "shape": [256], "dtype": "float32", "quantization": {"dtype": "uint8", "min": 0.0, "scale": 1.0, "original_dtype": "float32"}}, {"name": "conv4_block3_2_bn/gamma", "shape": [256], "dtype": "float32", "quantization": {"dtype": "uint8", "min": 0.5552687048912048, "scale": 0.005275631184671439, "original_dtype": "float32"}}, {"name": "conv4_block3_2_bn/beta", "shape": [256], "dtype": "float32", "quantization": {"dtype": "uint8", "min": -1.6561929513426388, "scale": 0.009252474588506362, "original_dtype": "float32"}}, {"name": "conv4_block3_2_bn/moving_mean", "shape": [256], "dtype": "float32", "quantization": {"dtype": "uint8", "min": -0.9588183283805847, "scale": 0.007319223880767822, "original_dtype": "float32"}}, {"name": "conv4_block3_2_bn/moving_variance", "shape": [256], "dtype": "float32", "quantization": {"dtype": "uint8", "min": 0.08332255482673645, "scale": 0.001503892272126441, "original_dtype": "float32"}}, {"name": "conv4_block3_2_conv/kernel", "shape": [3, 3, 256, 256], "dtype": "float32", "quantization": {"dtype": "uint8", "min": -0.16387327593915602, "scale": 0.0016552856155470305, "original_dtype": "float32"}}, {"name": "conv4_block3_2_conv/bias", "shape": [256], "dtype": "float32", "quantization": {"dtype": "uint8", "min": 0.0, "scale": 1.0, "original_dtype": "float32"}}, {"name": "conv4_block3_3_bn/gamma", "shape": [1024], "dtype": "float32", "quantization": {"dtype": "uint8", "min": 0.0488269217312336, "scale": 0.0054936423459473775, "original_dtype": "float32"}}, {"name": "conv4_block3_3_bn/beta", "shape": [1024], "dtype": "float32", "quantization": {"dtype": "uint8", "min": -1.1985715249005486, "scale": 0.007009190204096775, "original_dtype": "float32"}}, {"name": "conv4_block3_3_bn/moving_mean", "shape": [1024], "dtype": "float32", "quantization": {"dtype": "uint8", "min": -0.30009238521258036, "scale": 0.0025217847496855493, "original_dtype": "float32"}}, {"name": "conv4_block3_3_bn/moving_variance", "shape": [1024], "dtype": "float32", "quantization": {"dtype": "uint8", "min": 0.0017046096036210656, "scale": 0.0003771924263085513, "original_dtype": "float32"}}, {"name": "conv4_block3_3_conv/kernel", "shape": [1, 1, 256, 1024], "dtype": "float32", "quantization": {"dtype": "uint8", "min": -0.28934120921527634, "scale": 0.0021592627553378833, "original_dtype": "float32"}}, {"name": "conv4_block3_3_conv/bias", "shape": [1024], "dtype": "float32", "quantization": {"dtype": "uint8", "min": 0.0, "scale": 1.0, "original_dtype": "float32"}}, {"name": "conv4_block4_1_bn/gamma", "shape": [256], "dtype": "float32", "quantization": {"dtype": "uint8", "min": 0.4422333836555481, "scale": 0.003570565756629495, "original_dtype": "float32"}}, {"name": "conv4_block4_1_bn/beta", "shape": [256], "dtype": "float32", "quantization": {"dtype": "uint8", "min": -2.320081736527237, "scale": 0.0111008695527619, "original_dtype": "float32"}}, {"name": "conv4_block4_1_bn/moving_mean", "shape": [256], "dtype": "float32", "quantization": {"dtype": "uint8", "min": -1.940459681959713, "scale": 0.011152067137699501, "original_dtype": "float32"}}, {"name": "conv4_block4_1_bn/moving_variance", "shape": [256], "dtype": "float32", "quantization": {"dtype": "uint8", "min": 0.3172389268875122, "scale": 0.009561955227571375, "original_dtype": "float32"}}, {"name": "conv4_block4_1_conv/kernel", "shape": [1, 1, 1024, 256], "dtype": "float32", "quantization": {"dtype": "uint8", "min": -0.19382264123243442, "scale": 0.0019190360518062815, "original_dtype": "float32"}}, {"name": "conv4_block4_1_conv/bias", "shape": [256], "dtype": "float32", "quantization": {"dtype": "uint8", "min": 0.0, "scale": 1.0, "original_dtype": "float32"}}, {"name": "conv4_block4_2_bn/gamma", "shape": [256], "dtype": "float32", "quantization": {"dtype": "uint8", "min": 0.5292788743972778, "scale": 0.005529026424183565, "original_dtype": "float32"}}, {"name": "conv4_block4_2_bn/beta", "shape": [256], "dtype": "float32", "quantization": {"dtype": "uint8", "min": -1.6094315566268622, "scale": 0.009357160212946873, "original_dtype": "float32"}}, {"name": "conv4_block4_2_bn/moving_mean", "shape": [256], "dtype": "float32", "quantization": {"dtype": "uint8", "min": -1.1220225927876493, "scale": 0.008565057960211063, "original_dtype": "float32"}}, {"name": "conv4_block4_2_bn/moving_variance", "shape": [256], "dtype": "float32", "quantization": {"dtype": "uint8", "min": 0.07131592184305191, "scale": 0.0023700637852444367, "original_dtype": "float32"}}, {"name": "conv4_block4_2_conv/kernel", "shape": [3, 3, 256, 256], "dtype": "float32", "quantization": {"dtype": "uint8", "min": -0.20107692082722983, "scale": 0.0014785067707884546, "original_dtype": "float32"}}, {"name": "conv4_block4_2_conv/bias", "shape": [256], "dtype": "float32", "quantization": {"dtype": "uint8", "min": 0.0, "scale": 1.0, "original_dtype": "float32"}}, {"name": "conv4_block4_3_bn/gamma", "shape": [1024], "dtype": "float32", "quantization": {"dtype": "uint8", "min": -0.039588720482938426, "scale": 0.006598120080489738, "original_dtype": "float32"}}, {"name": "conv4_block4_3_bn/beta", "shape": [1024], "dtype": "float32", "quantization": {"dtype": "uint8", "min": -1.4840727693894329, "scale": 0.007169433668547985, "original_dtype": "float32"}}, {"name": "conv4_block4_3_bn/moving_mean", "shape": [1024], "dtype": "float32", "quantization": {"dtype": "uint8", "min": -0.3640890156521516, "scale": 0.0029843361938700955, "original_dtype": "float32"}}, {"name": "conv4_block4_3_bn/moving_variance", "shape": [1024], "dtype": "float32", "quantization": {"dtype": "uint8", "min": 8.513742068316787e-05, "scale": 0.00041752554180657527, "original_dtype": "float32"}}, {"name": "conv4_block4_3_conv/kernel", "shape": [1, 1, 256, 1024], "dtype": "float32", "quantization": {"dtype": "uint8", "min": -0.20567957677093207, "scale": 0.0017430472607706108, "original_dtype": "float32"}}, {"name": "conv4_block4_3_conv/bias", "shape": [1024], "dtype": "float32", "quantization": {"dtype": "uint8", "min": 0.0, "scale": 1.0, "original_dtype": "float32"}}, {"name": "conv4_block5_1_bn/gamma", "shape": [256], "dtype": "float32", "quantization": {"dtype": "uint8", "min": 0.4382966458797455, "scale": 0.003950978844773536, "original_dtype": "float32"}}, {"name": "conv4_block5_1_bn/beta", "shape": [256], "dtype": "float32", "quantization": {"dtype": "uint8", "min": -2.514182472930235, "scale": 0.012029581210192512, "original_dtype": "float32"}}, {"name": "conv4_block5_1_bn/moving_mean", "shape": [256], "dtype": "float32", "quantization": {"dtype": "uint8", "min": -2.5767556386835433, "scale": 0.01244809487286736, "original_dtype": "float32"}}, {"name": "conv4_block5_1_bn/moving_variance", "shape": [256], "dtype": "float32", "quantization": {"dtype": "uint8", "min": 0.4042649567127228, "scale": 0.005722995248495364, "original_dtype": "float32"}}, {"name": "conv4_block5_1_conv/kernel", "shape": [1, 1, 1024, 256], "dtype": "float32", "quantization": {"dtype": "uint8", "min": -0.22527081475538366, "scale": 0.0020858408773646634, "original_dtype": "float32"}}, {"name": "conv4_block5_1_conv/bias", "shape": [256], "dtype": "float32", "quantization": {"dtype": "uint8", "min": 0.0, "scale": 1.0, "original_dtype": "float32"}}, {"name": "conv4_block5_2_bn/gamma", "shape": [256], "dtype": "float32", "quantization": {"dtype": "uint8", "min": 0.650596022605896, "scale": 0.004735287030537923, "original_dtype": "float32"}}, {"name": "conv4_block5_2_bn/beta", "shape": [256], "dtype": "float32", "quantization": {"dtype": "uint8", "min": -1.587631996940164, "scale": 0.008820177760778689, "original_dtype": "float32"}}, {"name": "conv4_block5_2_bn/moving_mean", "shape": [256], "dtype": "float32", "quantization": {"dtype": "uint8", "min": -0.4664080012078379, "scale": 0.0037613548484503054, "original_dtype": "float32"}}, {"name": "conv4_block5_2_bn/moving_variance", "shape": [256], "dtype": "float32", "quantization": {"dtype": "uint8", "min": 0.05927896872162819, "scale": 0.0011478822459192837, "original_dtype": "float32"}}, {"name": "conv4_block5_2_conv/kernel", "shape": [3, 3, 256, 256], "dtype": "float32", "quantization": {"dtype": "uint8", "min": -0.14661526586495194, "scale": 0.0014516362956925935, "original_dtype": "float32"}}, {"name": "conv4_block5_2_conv/bias", "shape": [256], "dtype": "float32", "quantization": {"dtype": "uint8", "min": 0.0, "scale": 1.0, "original_dtype": "float32"}}, {"name": "conv4_block5_3_bn/gamma", "shape": [1024], "dtype": "float32", "quantization": {"dtype": "uint8", "min": -0.0, "scale": 0.005889593064328473, "original_dtype": "float32"}}, {"name": "conv4_block5_3_bn/beta", "shape": [1024], "dtype": "float32", "quantization": {"dtype": "uint8", "min": -1.1102164591059966, "scale": 0.006853188019172818, "original_dtype": "float32"}}, {"name": "conv4_block5_3_bn/moving_mean", "shape": [1024], "dtype": "float32", "quantization": {"dtype": "uint8", "min": -0.582913356668809, "scale": 0.006476815074097877, "original_dtype": "float32"}}, {"name": "conv4_block5_3_bn/moving_variance", "shape": [1024], "dtype": "float32", "quantization": {"dtype": "uint8", "min": 0.0003081673930864781, "scale": 0.000678920701223736, "original_dtype": "float32"}}, {"name": "conv4_block5_3_conv/kernel", "shape": [1, 1, 256, 1024], "dtype": "float32", "quantization": {"dtype": "uint8", "min": -0.17900417452933742, "scale": 0.0017379046070809458, "original_dtype": "float32"}}, {"name": "conv4_block5_3_conv/bias", "shape": [1024], "dtype": "float32", "quantization": {"dtype": "uint8", "min": 0.0, "scale": 1.0, "original_dtype": "float32"}}, {"name": "conv4_block6_1_bn/gamma", "shape": [256], "dtype": "float32", "quantization": {"dtype": "uint8", "min": 0.4254356026649475, "scale": 0.004397019451739741, "original_dtype": "float32"}}, {"name": "conv4_block6_1_bn/beta", "shape": [256], "dtype": "float32", "quantization": {"dtype": "uint8", "min": -1.973412836299223, "scale": 0.010963404646106794, "original_dtype": "float32"}}, {"name": "conv4_block6_1_bn/moving_mean", "shape": [256], "dtype": "float32", "quantization": {"dtype": "uint8", "min": -1.1526873623623568, "scale": 0.008175087676328772, "original_dtype": "float32"}}, {"name": "conv4_block6_1_bn/moving_variance", "shape": [256], "dtype": "float32", "quantization": {"dtype": "uint8", "min": 0.41855305433273315, "scale": 0.006663093613643273, "original_dtype": "float32"}}, {"name": "conv4_block6_1_conv/kernel", "shape": [1, 1, 1024, 256], "dtype": "float32", "quantization": {"dtype": "uint8", "min": -0.1534414908465217, "scale": 0.0018943393931669346, "original_dtype": "float32"}}, {"name": "conv4_block6_1_conv/bias", "shape": [256], "dtype": "float32", "quantization": {"dtype": "uint8", "min": 0.0, "scale": 1.0, "original_dtype": "float32"}}, {"name": "conv4_block6_2_bn/gamma", "shape": [256], "dtype": "float32", "quantization": {"dtype": "uint8", "min": 0.6498118042945862, "scale": 0.00898982660443175, "original_dtype": "float32"}}, {"name": "conv4_block6_2_bn/beta", "shape": [256], "dtype": "float32", "quantization": {"dtype": "uint8", "min": -1.089297287604388, "scale": 0.007310720051036161, "original_dtype": "float32"}}, {"name": "conv4_block6_2_bn/moving_mean", "shape": [256], "dtype": "float32", "quantization": {"dtype": "uint8", "min": -0.9005843653398401, "scale": 0.005525057456072639, "original_dtype": "float32"}}, {"name": "conv4_block6_2_bn/moving_variance", "shape": [256], "dtype": "float32", "quantization": {"dtype": "uint8", "min": 0.08530989289283752, "scale": 0.003451955201579075, "original_dtype": "float32"}}, {"name": "conv4_block6_2_conv/kernel", "shape": [3, 3, 256, 256], "dtype": "float32", "quantization": {"dtype": "uint8", "min": -0.292089768484527, "scale": 0.0022296928891948624, "original_dtype": "float32"}}, {"name": "conv4_block6_2_conv/bias", "shape": [256], "dtype": "float32", "quantization": {"dtype": "uint8", "min": 0.0, "scale": 1.0, "original_dtype": "float32"}}, {"name": "conv4_block6_3_bn/gamma", "shape": [1024], "dtype": "float32", "quantization": {"dtype": "uint8", "min": 0.0042371368035674095, "scale": 0.00776500202642352, "original_dtype": "float32"}}, {"name": "conv4_block6_3_bn/beta", "shape": [1024], "dtype": "float32", "quantization": {"dtype": "uint8", "min": -1.6410384411905325, "scale": 0.01131750649096919, "original_dtype": "float32"}}, {"name": "conv4_block6_3_bn/moving_mean", "shape": [1024], "dtype": "float32", "quantization": {"dtype": "uint8", "min": -0.6195256667978624, "scale": 0.0044893164260714664, "original_dtype": "float32"}}, {"name": "conv4_block6_3_bn/moving_variance", "shape": [1024], "dtype": "float32", "quantization": {"dtype": "uint8", "min": 0.0005924173747189343, "scale": 0.004464478793270959, "original_dtype": "float32"}}, {"name": "conv4_block6_3_conv/kernel", "shape": [1, 1, 256, 1024], "dtype": "float32", "quantization": {"dtype": "uint8", "min": -0.23294875119246689, "scale": 0.0020614933733846628, "original_dtype": "float32"}}, {"name": "conv4_block6_3_conv/bias", "shape": [1024], "dtype": "float32", "quantization": {"dtype": "uint8", "min": 0.0, "scale": 1.0, "original_dtype": "float32"}}, {"name": "conv5_block1_0_bn/gamma", "shape": [2048], "dtype": "float32", "quantization": {"dtype": "uint8", "min": 0.2612585127353668, "scale": 0.016918352889079672, "original_dtype": "float32"}}, {"name": "conv5_block1_0_bn/beta", "shape": [2048], "dtype": "float32", "quantization": {"dtype": "uint8", "min": -1.8151924413793228, "scale": 0.010934894225176644, "original_dtype": "float32"}}, {"name": "conv5_block1_0_bn/moving_mean", "shape": [2048], "dtype": "float32", "quantization": {"dtype": "uint8", "min": -1.4525122165679931, "scale": 0.014821553230285644, "original_dtype": "float32"}}, {"name": "conv5_block1_0_bn/moving_variance", "shape": [2048], "dtype": "float32", "quantization": {"dtype": "uint8", "min": 0.08771493285894394, "scale": 0.0031894035491288877, "original_dtype": "float32"}}, {"name": "conv5_block1_0_conv/kernel", "shape": [1, 1, 1024, 2048], "dtype": "float32", "quantization": {"dtype": "uint8", "min": -0.6212012213819167, "scale": 0.004254802886177512, "original_dtype": "float32"}}, {"name": "conv5_block1_0_conv/bias", "shape": [2048], "dtype": "float32", "quantization": {"dtype": "uint8", "min": -3.570087445790277e-05, "scale": 1.859420544682436e-07, "original_dtype": "float32"}}, {"name": "conv5_block1_1_bn/gamma", "shape": [512], "dtype": "float32", "quantization": {"dtype": "uint8", "min": 0.5353331565856934, "scale": 0.004153029591429467, "original_dtype": "float32"}}, {"name": "conv5_block1_1_bn/beta", "shape": [512], "dtype": "float32", "quantization": {"dtype": "uint8", "min": -1.755297362804413, "scale": 0.008015056451161703, "original_dtype": "float32"}}, {"name": "conv5_block1_1_bn/moving_mean", "shape": [512], "dtype": "float32", "quantization": {"dtype": "uint8", "min": -2.4887769909466018, "scale": 0.014554251409044454, "original_dtype": "float32"}}, {"name": "conv5_block1_1_bn/moving_variance", "shape": [512], "dtype": "float32", "quantization": {"dtype": "uint8", "min": 0.480496883392334, "scale": 0.00536352138893277, "original_dtype": "float32"}}, {"name": "conv5_block1_1_conv/kernel", "shape": [1, 1, 1024, 512], "dtype": "float32", "quantization": {"dtype": "uint8", "min": -0.18381181160608928, "scale": 0.0020199100176493327, "original_dtype": "float32"}}, {"name": "conv5_block1_1_conv/bias", "shape": [512], "dtype": "float32", "quantization": {"dtype": "uint8", "min": 0.0, "scale": 1.0, "original_dtype": "float32"}}, {"name": "conv5_block1_2_bn/gamma", "shape": [512], "dtype": "float32", "quantization": {"dtype": "uint8", "min": 0.4566636085510254, "scale": 0.004257739291471593, "original_dtype": "float32"}}, {"name": "conv5_block1_2_bn/beta", "shape": [512], "dtype": "float32", "quantization": {"dtype": "uint8", "min": -1.8243999691570507, "scale": 0.010425142680897432, "original_dtype": "float32"}}, {"name": "conv5_block1_2_bn/moving_mean", "shape": [512], "dtype": "float32", "quantization": {"dtype": "uint8", "min": -2.449072000092151, "scale": 0.013310173913544299, "original_dtype": "float32"}}, {"name": "conv5_block1_2_bn/moving_variance", "shape": [512], "dtype": "float32", "quantization": {"dtype": "uint8", "min": 0.15992507338523865, "scale": 0.0035163791740641876, "original_dtype": "float32"}}, {"name": "conv5_block1_2_conv/kernel", "shape": [3, 3, 512, 512], "dtype": "float32", "quantization": {"dtype": "uint8", "min": -0.17702735072257472, "scale": 0.0017527460467581656, "original_dtype": "float32"}}, {"name": "conv5_block1_2_conv/bias", "shape": [512], "dtype": "float32", "quantization": {"dtype": "uint8", "min": -3.211176882876887e-05, "scale": 2.2936977734834906e-07, "original_dtype": "float32"}}, {"name": "conv5_block1_3_bn/gamma", "shape": [2048], "dtype": "float32", "quantization": {"dtype": "uint8", "min": 0.8874117136001587, "scale": 0.010213392388586904, "original_dtype": "float32"}}, {"name": "conv5_block1_3_bn/beta", "shape": [2048], "dtype": "float32", "quantization": {"dtype": "uint8", "min": -1.8151924413793228, "scale": 0.010934894225176644, "original_dtype": "float32"}}, {"name": "conv5_block1_3_bn/moving_mean", "shape": [2048], "dtype": "float32", "quantization": {"dtype": "uint8", "min": -0.6016911653911367, "scale": 0.005142659533257578, "original_dtype": "float32"}}, {"name": "conv5_block1_3_bn/moving_variance", "shape": [2048], "dtype": "float32", "quantization": {"dtype": "uint8", "min": 0.007031414192169905, "scale": 0.000718931636462609, "original_dtype": "float32"}}, {"name": "conv5_block1_3_conv/kernel", "shape": [1, 1, 512, 2048], "dtype": "float32", "quantization": {"dtype": "uint8", "min": -0.33216362595558163, "scale": 0.0029924650986989337, "original_dtype": "float32"}}, {"name": "conv5_block1_3_conv/bias", "shape": [2048], "dtype": "float32", "quantization": {"dtype": "uint8", "min": -4.4671516347900214e-05, "scale": 6.119385801082221e-07, "original_dtype": "float32"}}, {"name": "conv5_block2_1_bn/gamma", "shape": [512], "dtype": "float32", "quantization": {"dtype": "uint8", "min": 0.3979456424713135, "scale": 0.004037596665176691, "original_dtype": "float32"}}, {"name": "conv5_block2_1_bn/beta", "shape": [512], "dtype": "float32", "quantization": {"dtype": "uint8", "min": -1.3828686423161451, "scale": 0.007091634063159718, "original_dtype": "float32"}}, {"name": "conv5_block2_1_bn/moving_mean", "shape": [512], "dtype": "float32", "quantization": {"dtype": "uint8", "min": -5.005517578125, "scale": 0.036805276309742646, "original_dtype": "float32"}}, {"name": "conv5_block2_1_bn/moving_variance", "shape": [512], "dtype": "float32", "quantization": {"dtype": "uint8", "min": 1.6700870990753174, "scale": 0.028879684560439167, "original_dtype": "float32"}}, {"name": "conv5_block2_1_conv/kernel", "shape": [1, 1, 2048, 512], "dtype": "float32", "quantization": {"dtype": "uint8", "min": -0.3148934946340673, "scale": 0.0034988166070451924, "original_dtype": "float32"}}, {"name": "conv5_block2_1_conv/bias", "shape": [512], "dtype": "float32", "quantization": {"dtype": "uint8", "min": -8.581443826722747e-06, "scale": 8.939003986169529e-08, "original_dtype": "float32"}}, {"name": "conv5_block2_2_bn/gamma", "shape": [512], "dtype": "float32", "quantization": {"dtype": "uint8", "min": 0.3534312844276428, "scale": 0.004684527013816085, "original_dtype": "float32"}}, {"name": "conv5_block2_2_bn/beta", "shape": [512], "dtype": "float32", "quantization": {"dtype": "uint8", "min": -1.864682854390612, "scale": 0.010778513609194289, "original_dtype": "float32"}}, {"name": "conv5_block2_2_bn/moving_mean", "shape": [512], "dtype": "float32", "quantization": {"dtype": "uint8", "min": -1.278377099130668, "scale": 0.00900265562768076, "original_dtype": "float32"}}, {"name": "conv5_block2_2_bn/moving_variance", "shape": [512], "dtype": "float32", "quantization": {"dtype": "uint8", "min": 0.0917082130908966, "scale": 0.001384948398552689, "original_dtype": "float32"}}, {"name": "conv5_block2_2_conv/kernel", "shape": [3, 3, 512, 512], "dtype": "float32", "quantization": {"dtype": "uint8", "min": -0.2166157756365982, "scale": 0.0019692343239690745, "original_dtype": "float32"}}, {"name": "conv5_block2_2_conv/bias", "shape": [512], "dtype": "float32", "quantization": {"dtype": "uint8", "min": -5.2739115370273154e-05, "scale": 3.5634537412346727e-07, "original_dtype": "float32"}}, {"name": "conv5_block2_3_bn/gamma", "shape": [2048], "dtype": "float32", "quantization": {"dtype": "uint8", "min": 0.5746536254882812, "scale": 0.008908357807234223, "original_dtype": "float32"}}, {"name": "conv5_block2_3_bn/beta", "shape": [2048], "dtype": "float32", "quantization": {"dtype": "uint8", "min": -2.6448586089938297, "scale": 0.012475748155631272, "original_dtype": "float32"}}, {"name": "conv5_block2_3_bn/moving_mean", "shape": [2048], "dtype": "float32", "quantization": {"dtype": "uint8", "min": -0.4263649688047521, "scale": 0.004584569557040345, "original_dtype": "float32"}}, {"name": "conv5_block2_3_bn/moving_variance", "shape": [2048], "dtype": "float32", "quantization": {"dtype": "uint8", "min": 0.003015909343957901, "scale": 0.00037099372814683354, "original_dtype": "float32"}}, {"name": "conv5_block2_3_conv/kernel", "shape": [1, 1, 512, 2048], "dtype": "float32", "quantization": {"dtype": "uint8", "min": -0.20192607290604536, "scale": 0.0018696858602411607, "original_dtype": "float32"}}, {"name": "conv5_block2_3_conv/bias", "shape": [2048], "dtype": "float32", "quantization": {"dtype": "uint8", "min": -9.197308185428162e-05, "scale": 6.131538790285442e-07, "original_dtype": "float32"}}, {"name": "conv5_block3_1_bn/gamma", "shape": [512], "dtype": "float32", "quantization": {"dtype": "uint8", "min": 0.36313506960868835, "scale": 0.0034730243916605034, "original_dtype": "float32"}}, {"name": "conv5_block3_1_bn/beta", "shape": [512], "dtype": "float32", "quantization": {"dtype": "uint8", "min": -1.6620420766811743, "scale": 0.009497383295320997, "original_dtype": "float32"}}, {"name": "conv5_block3_1_bn/moving_mean", "shape": [512], "dtype": "float32", "quantization": {"dtype": "uint8", "min": -2.1948351355159983, "scale": 0.028879409677842083, "original_dtype": "float32"}}, {"name": "conv5_block3_1_bn/moving_variance", "shape": [512], "dtype": "float32", "quantization": {"dtype": "uint8", "min": 1.672356128692627, "scale": 0.08734177047131109, "original_dtype": "float32"}}, {"name": "conv5_block3_1_conv/kernel", "shape": [1, 1, 2048, 512], "dtype": "float32", "quantization": {"dtype": "uint8", "min": -0.291350861156688, "scale": 0.0031668571864857395, "original_dtype": "float32"}}, {"name": "conv5_block3_1_conv/bias", "shape": [512], "dtype": "float32", "quantization": {"dtype": "uint8", "min": -1.1387165276948294e-05, "scale": 7.161739167892008e-08, "original_dtype": "float32"}}, {"name": "conv5_block3_2_bn/gamma", "shape": [512], "dtype": "float32", "quantization": {"dtype": "uint8", "min": 0.5217807292938232, "scale": 0.0031842301873599784, "original_dtype": "float32"}}, {"name": "conv5_block3_2_bn/beta", "shape": [512], "dtype": "float32", "quantization": {"dtype": "uint8", "min": -1.8671716185177074, "scale": 0.011969048836651971, "original_dtype": "float32"}}, {"name": "conv5_block3_2_bn/moving_mean", "shape": [512], "dtype": "float32", "quantization": {"dtype": "uint8", "min": -0.706569803462309, "scale": 0.004529293611937878, "original_dtype": "float32"}}, {"name": "conv5_block3_2_bn/moving_variance", "shape": [512], "dtype": "float32", "quantization": {"dtype": "uint8", "min": 0.07048802077770233, "scale": 0.0018081906379437914, "original_dtype": "float32"}}, {"name": "conv5_block3_2_conv/kernel", "shape": [3, 3, 512, 512], "dtype": "float32", "quantization": {"dtype": "uint8", "min": -0.14014135984813467, "scale": 0.0011122330146677354, "original_dtype": "float32"}}, {"name": "conv5_block3_2_conv/bias", "shape": [512], "dtype": "float32", "quantization": {"dtype": "uint8", "min": -3.125796152459111e-05, "scale": 2.5006369219672886e-07, "original_dtype": "float32"}}, {"name": "conv5_block3_3_bn/gamma", "shape": [2048], "dtype": "float32", "quantization": {"dtype": "uint8", "min": 0.4350385069847107, "scale": 0.010349056066251269, "original_dtype": "float32"}}, {"name": "conv5_block3_3_bn/beta", "shape": [2048], "dtype": "float32", "quantization": {"dtype": "uint8", "min": -3.882500410079956, "scale": 0.01424679066620621, "original_dtype": "float32"}}, {"name": "conv5_block3_3_bn/moving_mean", "shape": [2048], "dtype": "float32", "quantization": {"dtype": "uint8", "min": -0.24696446826644972, "scale": 0.0013644445760577332, "original_dtype": "float32"}}, {"name": "conv5_block3_3_bn/moving_variance", "shape": [2048], "dtype": "float32", "quantization": {"dtype": "uint8", "min": 0.0019449708051979542, "scale": 0.0003324397182201638, "original_dtype": "float32"}}, {"name": "conv5_block3_3_conv/kernel", "shape": [1, 1, 512, 2048], "dtype": "float32", "quantization": {"dtype": "uint8", "min": -0.1342881240096747, "scale": 0.0016998496710085402, "original_dtype": "float32"}}, {"name": "conv5_block3_3_conv/bias", "shape": [2048], "dtype": "float32", "quantization": {"dtype": "uint8", "min": -7.484529924113303e-05, "scale": 6.289520944633028e-07, "original_dtype": "float32"}}, {"name": "dense/kernel", "shape": [2048, 128], "dtype": "float32", "quantization": {"dtype": "uint8", "min": -0.055353814801749064, "scale": 0.0004393159904900719, "original_dtype": "float32"}}, {"name": "dense/bias", "shape": [128], "dtype": "float32", "quantization": {"dtype": "uint8", "min": -0.0020065226628645963, "scale": 2.112129118804838e-05, "original_dtype": "float32"}}, {"name": "dense_1/kernel", "shape": [128, 64], "dtype": "float32", "quantization": {"dtype": "uint8", "min": -0.18038553724101947, "scale": 0.0014092620096954646, "original_dtype": "float32"}}, {"name": "dense_1/bias", "shape": [64], "dtype": "float32", "quantization": {"dtype": "uint8", "min": -0.0027526663068462823, "scale": 2.752666306846282e-05, "original_dtype": "float32"}}, {"name": "dense_2/kernel", "shape": [64, 1], "dtype": "float32", "quantization": {"dtype": "uint8", "min": -0.28599632136961994, "scale": 0.0022879705709569595, "original_dtype": "float32"}}, {"name": "dense_2/bias", "shape": [1], "dtype": "float32", "quantization": {"dtype": "uint8", "min": -0.0024895144160836935, "scale": 1.0, "original_dtype": "float32"}}]}]}